openxai/ML_Models/Saved_Models/LR/compas_lr_0.002_acc_0.85.pt (torch, 1151 bytes, 2 tensors)

linear.weight f4 [2, 7]
00000000: 52f7 47c0 adaa 023f 28dd 6940 2bcc fe3f
00000010: 248a 2a3e 3d04 573e 8b8c 033f 8087 6640
00000020: 0446 8dbe 0a51 3ec0 9f4f 23c0 9785 47be
00000030: 939e 973e 0013 c4bd
-3.1244702 0.5104168 3.6541233 1.9906057 0.16654259 0.2099771 0.51386327 3.6020203
-0.2759248 -2.9736962 -2.5517347 -0.19484554 0.2961317 -0.095739365

linear.bias f4 [2]
00000000: 47ac 9cbf 7072 833f
-1.2240075 1.0269299
