openxai/ML_Models/Saved_Models/LR/gaussian_lr_0.002_acc_0.73.pt (torch, 1279 bytes, 2 tensors)

linear.weight f4 [2, 20]
000000 16 51 0b bf 93 4a 4d be 36 e5 45 40 7d 4b 7c be
       -0.544206 -0.20047979 3.092115 -0.24638171
000010 01 aa 8f be 5d 02 83 bd 72 cd 37 bf 4b 6e 30 c0
       -0.2805939 -0.06396935 -0.7179786 -2.7567317
000020 ec 7d 4e bf 0c d2 89 3d 51 73 fe 3c b5 84 20 3f
       -0.8066089 0.067295164 0.031060847 0.62702495
000030 5b 83 f4 3f 6c c5 5a 3e 1c 64 a2 be 16 95 8c 3e
       1.9102587 0.21364373 -0.31717002 0.27457494
000040 59 cd 05 3f 54 38 25 3f 57 c0 03 c0 7d a3 07 c0
       0.5226646 0.64539075 -2.0586145 -2.1193535
000050 f7 31 b3 3e 7d c1 20 3e 49 4e 40 c0 7a ea 0d 3e
       0.34999058 0.1569881 -3.0047781 0.13858977
000060 c1 b7 05 3f 98 ac e0 bd 79 b1 de 3e e4 d4 21 40
       0.5223351 -0.1097042 0.43494776 2.5286188
000070 16 ba 3c 3f ef 1f 96 be 49 2d 24 be 43 06 ba be
       0.73721445 -0.29321238 -0.160329 -0.36332902
000080 96 21 df bf c3 75 c9 bc 20 cf ae 3d de d4 d8 be
       -1.7432125 -0.024592286 0.085356 -0.42349905
000090 2d 51 24 bf c6 7b 07 bf 88 f8 12 40 6c 98 0c 40
       -0.64186364 -0.5292324 2.2964191 2.196803

linear.bias f4 [2]
000000 ff c7 71 3f 24 5b 5e bf
       0.94445795 -0.8685782
