openxai/ML_Models/Saved_Models/LR/german_lr_0.002_acc_0.72.pt (torch, 1575 bytes, 2 tensors)

linear.weight f4 [2, 60]
0	0x3e21c36c	0.15797204
1	0x3cc8d571	0.02451584
2	0x3cc0efee	0.023551907
3	0xbe15feac	-0.14647931
4	0xbda8771f	-0.082258455
5	0xbdb6242a	-0.088936165
6	0x3e32f705	0.17477043
7	0x3e3ed3b2	0.18635443
8	0xbda79df2	-0.081844226
9	0x3c21e43f	0.009881078
10	0x3cd4b7c4	0.025966533
11	0xbe56d54f	-0.20979808
12	0xbca56c69	-0.020193296
13	0x3daee0c6	0.08538966
14	0xbcf6449a	-0.030062009
15	0xbde998df	-0.11406111
16	0xbd719085	-0.058975715
17	0x3eac03c6	0.3359663
18	0x3e289b8b	0.16465585
19	0x3e25ec54	0.16203433
20	0xbda8d4f7	-0.08243745
21	0x3dfb4d1e	0.12270568
22	0xbe7a8cdf	-0.244678
23	0xbeb354c0	-0.35025597
24	0xbe2a0104	-0.1660195
25	0xbe8bb5eb	-0.2728723
26	0xbe8d882c	-0.27642953
27	0x3db0e48e	0.08637343
28	0xbe261a38	-0.16220939
29	0x3e07aa8a	0.13248649
30	0x3e2cf172	0.16888979
31	0xbe6ef9ac	-0.2333743
32	0xbd36332d	-0.0444824
33	0x3d71af6f	0.059005197
34	0xbe33bc09	-0.17552198
35	0x3d1e49c6	0.038644575
36	0xbd5d331b	-0.054003816
37	0xbd90a963	-0.07063558
38	0xbdf8d756	-0.12150447
39	0x3ea9c091	0.3315473
40	0xbe98f835	-0.29876867
41	0x3d831d82	0.064021125
42	0xbef38af9	-0.47566965
43	0x3d8aaf16	0.06771676
44	0x3dbc7ffa	0.09204097
45	0xbcc472fd	-0.023980612
46	0xbc15c772	-0.00914179
47	0xbe1ac587	-0.15114413
48	0x3db2ea92	0.08736147
49	0xbe654643	-0.22390084
50	0xbd8ecfe3	-0.06973245
51	0xbe8a53c7	-0.27017042
52	0x3d8047eb	0.06263717
53	0xbd798793	-0.06092031
54	0xbe5f11c8	-0.21784127
55	0x3df0bdeb	0.11754974
56	0x3d2dbc95	0.042416174
57	0x3cd9aaa7	0.026570631
58	0xbc93fdd5	-0.018065372
59	0x3c228bd6	0.009921035
60	0xbea5c4e3	-0.32376775
61	0x3d00cd55	0.03144582
62	0x3dafb1fa	0.08578868
63	0x3e2adaed	0.16685076
64	0x3ce6fef5	0.028197745
65	0x3e44fb7b	0.19236557
66	0xbe3081c8	-0.17237008
67	0xbe660a47	-0.22464858
68	0xbcae8ebc	-0.021308295
69	0x3e0fb980	0.14035606
70	0xbe07502f	-0.13214181
71	0x3e3cbc64	0.1843124
72	0x3ddef80f	0.10887157
73	0xbd2e35d7	-0.042531814
74	0xbe07fa68	-0.13279116
75	0x3dee4b46	0.11635451
76	0xbd748f36	-0.05970689
77	0xbece335c	-0.4027356
78	0xbde80e9b	-0.11330911
79	0xbe9bd52e	-0.3043608
80	0x3e42cc5b	0.19023268
81	0xbc8d9b08	-0.017285839
82	0x3e1b2205	0.15149696
83	0x3e93e971	0.2888904
84	0x3ecdc154	0.4018656
85	0x3e88c819	0.26715162
86	0x3d326542	0.0435536
87	0xbd006d1f	-0.031354066
88	0xbc6ec31b	-0.014572884
89	0x3d6314b6	0.055439673
90	0xbd535c66	-0.05160179
91	0x3dc9ecc4	0.098596126
92	0xbd15bbb6	-0.03655597
93	0xbd96dfb8	-0.0736689
94	0xbcfafd1a	-0.030638266
95	0x3da1e455	0.07904879
96	0x3da09e32	0.07842673
97	0x3e3155b1	0.17317845
98	0x3df73e77	0.12072461
99	0xbec8d634	-0.39225924
100	0x3e896b44	0.2683965
101	0xbdece362	-0.11566807
102	0x3f0580bc	0.5214956
103	0xbd7476ff	-0.059683796
104	0xbdc65330	-0.096838355
105	0x3db69905	0.08915905
106	0xbd94de25	-0.07268933
107	0x3ea8542c	0.32876718
108	0xbd9ff876	-0.07811062
109	0x3e3a668b	0.1820318
110	0x3d08dcbb	0.03341363
111	0x3e7ae2ba	0.24500552
112	0xbdd4cad9	-0.103902526
113	0xbda9c6be	-0.0828986
114	0x3e198529	0.14992203
115	0x3b91b2d2	0.004446366
116	0xbd26b7dd	-0.04070269
117	0x3bf78ac2	0.007554383
118	0x3da88f4d	0.082304575
119	0x3e30249a	0.17201462

linear.bias f4 [2]
0	0xbd8888e8	-0.06666738
1	0xbcce40c1	-0.025177361
