openxai/ML_Models/Saved_Models/LR/heloc_lr_0.002_acc_0.72.pt (torch, 1255 bytes, 2 tensors)

linear.weight f4 [2, 23]
000000 c8 eb 70 bf f4 cb f6 be d0 6c 8e 3f 0a c5 a0 bf
       -0.94109774 -0.4820248 1.1126957 -1.2560132
000010 06 68 88 bf dc 89 6e 3f e5 c9 59 3e 21 37 3f 3c
       -1.0656745 0.93179107 0.21268423 0.011670859
000020 40 5e 0f bf 72 59 10 bd 52 49 35 3e bf 73 a5 be
       -0.5600319 -0.03524155 0.1770375 -0.3231487
000030 ea 61 f6 3e 90 00 22 3f 78 03 e2 bd bf dc 0e 40
       0.48121578 0.6328211 -0.11035818 2.2322233
000040 3c 90 c0 3f 67 c1 9d 3f 0e 6c 38 3f a9 5c 11 3f
       1.5044017 1.2324647 0.7203988 0.56782013
000050 ea 20 9a be 76 40 c2 3f f0 ec 16 3d e6 f6 3c 3f
       -0.30103236 1.5175922 0.036847055 0.7381424
000060 ad 05 01 3f 3f 96 a0 bf 5d 83 b8 3f 78 fd a4 3f
       0.50399286 -1.2545851 1.4415089 1.2889853
000070 50 e9 42 bf 68 8d ab be 46 67 fc bc eb d8 0f 3f
       -0.76137257 -0.33506322 -0.030810963 0.56190366
000080 49 10 a6 3d 4b b9 2c be d3 45 e3 3d b7 09 f5 be
       0.08108575 -0.16867559 0.11097302 -0.47858974
000090 57 74 97 be 7d 32 3c be d2 69 10 c0 ed 1a b2 bf
       -0.29580948 -0.18378635 -2.2564588 -1.3914467
0000a0 2c 42 b9 bf 88 65 2a bf 29 19 75 bf b6 de fc 3e
       -1.4473319 -0.66561174 -0.95741516 0.49388665
0000b0 4d 13 ad bf 8a 6f 69 3d
       -1.3521515 0.056991138

linear.bias f4 [2]
000000 e2 79 1f 3f 98 48 0f bf
       0.62295353 -0.55970144
