xai_benchmark/ML_Models/Saved_Models/LR/adult_lr_0.002_acc_0.84.pt (torch, 1215 bytes, 2 tensors)

linear.weight f4 [2, 13]
-0.791396 -0.25041008 -2.3509798 -11.419956 -1.3543494 -0.88582397 -0.36160585 0.0390035
1.3497937 0.3448316 -0.056625057 -0.033207767 -0.03128544 0.8586268 -0.034601547 1.8319905
11.354023 1.1746744 1.2657875 -0.09976818 0.03455687 -1.2630434 -0.21908098 0.2105944
0.043437082 0.016711958
00000000: ee98 4abf c035 80be 7476 16c0 24b8 36c1
00000010: 525b adbf 5cc5 62bf 6724 b9be 22c2 1f3d
00000020: 0ac6 ac3f c48d b03e adef 67bd de04 08bd
00000030: 2925 00bd f7ce 5b3f 5aba 0dbd aa7e ea3f
00000040: 14aa 3541 bb5b 963f 5305 a23f 4253 ccbd
00000050: 818b 0d3d 68ab a1bf c456 60be 0fa6 573e
00000060: 15eb 313d 84e7 883c

linear.bias f4 [2]
2.305469 -2.4377916
00000000: ce8c 1340 c704 1cc0
