xai_benchmark/ML_Models/Saved_Models/SVM/gaussian_lr_0.002_acc_0.72.pt (torch_old, 645 bytes, 1 tensors)

input1.weight f4 [1, 20]
00000000: cfb0 273f 0da8 6b3e 68e5 97c0 3b0a 4c3e
00000010: e6d7 233f 91af 5ebe 6503 823f c89c 8240
00000020: e7b1 ac3f 2e39 0bbf 5b30 36be dcb3 74bf
00000030: ac00 52c0 980f 5abe 075d 5b3e 2fa8 21bf
00000040: 536a 8abf facb 88bf 20ba 6d40 92e6 7440
0.65504164 0.23013325 -4.7467537 0.19925778 0.6400131 -0.21746661 1.0157286 4.0816383
1.3491791 -0.54384124 -0.17791884 -0.95586944 -3.281291 -0.21295011 0.21422206 -0.6314725
-1.0813698 -1.0687249 3.7144852 3.826573
