openxai/ML_Models/Saved_Models/SVM/german_lr_0.002_acc_0.73.pt (torch, 1319 bytes, 1 tensors)

input1.weight f4 [1, 60]
00000000: d521 27bd 29a3 bd3c 92fe c23b 9007 593c
00000010: bb23 d53b 5764 3a3b 48db 0abb dd80 43bc
00000020: 8492 213d c74a 2a3d bf5a fb3c 7609 4a3d
00000030: e361 853d b4a0 603d 4076 4d3d 7037 823d
00000040: c848 463d 28bf c73b ab3b 1a3d f317 073d
00000050: 7c5e 573d 579d 473d 716d 563d d211 673d
00000060: c440 733d 237e c83d 98e5 543d 5220 163d
00000070: 4f8c 293d eecd ce3c 3671 df3c 70a0 3e3d
00000080: fc1f 8d3d 3390 833d 7190 883d 4e26 9a3d
00000090: e0be 933d ebde 6f3e 40d1 683e f51b 85be
000000a0: e0bb 6f3e 9eb5 a03d 5e50 d63d db30 a43d
000000b0: c970 a43d 0ee6 c03d 3291 b83d 345e db3d
000000c0: a94e c53d 61d9 e23d ddfb d43d 8ce5 7f3d
000000d0: d399 353d 9042 503d 1cf7 0c3e c32c e83d
000000e0: ac1c e83d 0499 e53d 6d63 823c 22ff 6b3c
-0.04080375 0.02314909 0.0059507573 0.013246432 0.0065045035 0.0028441155 -0.002118783 -0.011932579
0.03944637 0.04157522 0.03068292 0.04932543 0.06512811 0.05484076 0.0501616 0.0635823
0.048409253 0.0060957856 0.03765456 0.032981824 0.05258034 0.048734035 0.052350465 0.05641348
0.059387937 0.09789684 0.05197677 0.036651917 0.041393574 0.02524468 0.027275663 0.046539724
0.06890866 0.06423988 0.06668175 0.07526837 0.07214141 0.2342488 0.22736073 -0.25997892
0.23411512 0.07847141 0.104645476 0.08017131 0.080293246 0.094188794 0.09012069 0.10711327
0.09634144 0.11076618 0.103996016 0.062474772 0.04433615 0.05084473 0.1376614 0.113366626
0.11333594 0.11210826 0.01591655 0.01440409
