xai_benchmark/ML_Models/Saved_Models/ANN/adult_lr_0.002_acc_0.83.pt (torch, 8079 bytes, 4 tensors)

input1.weight f4 [100, 13]
000000 1c 08 29 3e e4 4d 71 be 42 a5 7d bd 6b 60 86 bc
       0.16507 -0.23564869 -0.06192518 -0.016403398
000010 f7 90 db bd 3e d3 54 3e 64 b6 5e 3e 44 99 2b be
       -0.10721009 0.20783707 0.21749264 -0.16757685
000020 d6 95 94 3e 9d 17 2b be ee ae 2c 3e 87 58 45 3e
       0.29020566 -0.16708227 0.16863605 0.19272052
000030 c5 de 83 be 7d 6e 81 3e bf de 97 3c e8 83 99 3e
       -0.25755897 0.25279608 0.01853883 0.2998345
000040 2b 4c 1a 3d 4a da 55 be 8a 95 3b 3e e7 81 5c be
       0.037670296 -0.20884052 0.18318763 -0.21533929
000050 04 4f f9 bd 7d 02 47 be 3e c7 12 3e bf a0 9a 3d
       -0.12173274 -0.19434543 0.14333817 0.07550191
000060 25 09 69 3e e4 1e 73 be 5f c4 4c 3d 6b c7 5e 3e
       0.22757395 -0.23742253 0.04999196 0.2175576
000070 36 49 af 3c d3 7b 63 be 55 4c f5 bd 28 7d 83 3d
       0.021397214 -0.22215204 -0.1197745 0.06420356
000080 29 82 7f 3e 12 bd 4b 3e a3 37 8f be 66 ce aa 3d
       0.24951996 0.19896343 -0.27972135 0.08340149
000090 f1 87 b0 bd b0 1f 21 3e 64 78 35 3e 65 af 0d be
       -0.08619679 0.15734744 0.17721707 -0.13836439
0000a0 65 26 90 3d 2c f4 99 3e 89 cb d4 3e 75 5d 82 3e
       0.07038573 0.300691 0.41561535 0.25461927
0000b0 ab dc fb bd 0e b2 db bd fb 02 3e 3e 3b 97 85 bd
       -0.122979484 -0.107273206 0.18555824 -0.065229855
0000c0 b3 f0 2f 3d 8b d6 5d 3e 92 24 fc 3d e7 b8 05 3c
       0.042954158 0.21663873 0.12311663 0.00816176
0000d0 4e f3 23 be 65 fb b0 bd 7e 30 c2 be 0b be 97 bf
       -0.16010782 -0.086417 -0.37927622 -1.1854872
0000e0 98 0c c7 be 94 ab 1c be 41 86 aa 3c c8 b6 94 bb
       -0.38876796 -0.15299827 0.02081597 -0.004538391
0000f0 1f 9a 4d 3e f7 a6 8b bd b8 be 4b 3c f9 10 24 3d
       0.20078324 -0.068189554 0.012435608 0.04005525
000100 55 ce 7c bc 72 31 29 3d 28 34 3d be d5 59 37 3e
       -0.015430053 0.04130692 -0.18476927 0.17905362
000110 16 bf 45 be ca 8c 74 3d 70 fd 58 be 98 27 18 be
       -0.19311175 0.05970458 -0.21190429 -0.14858854
000120 b1 07 bb bd fb 7a 43 3e e1 c4 27 3e a8 c4 8b 3e
       -0.091323264 0.19089882 0.16383697 0.27298474
000130 6b 61 64 bc 29 65 93 bd 95 0d 84 be b9 78 96 3d
       -0.013939242 -0.07197029 -0.25791612 0.07347245
000140 0e 58 78 3e 10 9e 5f 3c eb 38 54 3d d9 2c 91 be
       0.2425234 0.013648525 0.051812094 -0.2835453
000150 c9 b0 2a be 42 3e 4d be 8d 6a 74 be c8 81 fd bd
       -0.16669 -0.2004328 -0.23868771 -0.123782694
000160 41 2b 0e be 35 4e 81 3e c4 9f 39 be 2a 08 70 3e
       -0.13883688 0.2525498 -0.18127352 0.23440614
000170 e5 c2 37 3e fd f9 53 be 1d 32 3f 3e cd 4e 5b be
       0.1794544 -0.20700832 0.1867146 -0.21416779
000180 73 22 5a 3e 75 96 43 be c0 c0 ce bb 8e f7 50 be
       0.21302204 -0.19100364 -0.0063095987 -0.20406935
000190 fc 31 8d be 34 b4 1f be c2 d8 24 be 83 fe 39 be
       -0.27577198 -0.15596086 -0.16098312 -0.18163495
0001a0 ee 68 6e be 2c 7e 7d be 99 62 3f 3e e7 8f ea bd
       -0.23282215 -0.24755162 0.18689956 -0.114532284
0001b0 6d 51 f9 3c 06 30 ab bc 2d e9 14 3d b7 a2 cc 3d
       0.030434335 -0.020896923 0.036355186 0.09991973
0001c0 ac 32 24 be 74 c5 70 bd 58 95 e4 bc ff d7 66 bd
       -0.16034955 -0.058782056 -0.027903244 -0.056358334
0001d0 5c 27 4c bd 35 64 be bd 1a 04 9b 3b 3f 3f 90 bb
       -0.049842224 -0.09296457 0.0047307136 -0.004402071
0001e0 49 e6 d7 3d 31 c1 37 3e 32 65 63 be 97 1d 4f 3e
       0.1054197 0.1794479 -0.22206572 0.20226131
0001f0 4b dd 4f 3e 65 1e e6 3d fc 82 ff 3d 54 b7 91 3e
       0.2029926 0.11236266 0.12476155 0.2846018
000200 89 aa 53 be ea 99 7b 3d b6 25 19 3d c9 a1 47 bd
       -0.20670523 0.06142608 0.03738948 -0.048738275
000210 a9 18 73 3e 25 5b 69 be c4 10 6d be ea dd 0e 3d
       0.23739876 -0.22788675 -0.23150927 0.034879602
000220 ab ec 92 bd 19 10 93 be a6 d3 70 be c5 f5 96 3e
       -0.07174047 -0.2872322 -0.23518237 0.29484382
000230 e1 1e c2 bd 59 a2 e4 3d 3d 21 47 3c d7 b3 69 3e
       -0.09478546 0.11163778 0.012153921 0.2282251
000240 4b 90 19 3e 79 ba 40 bb 65 f3 cf 3e 51 7c 4c bd
       0.1499645 -0.0029408021 0.40615383 -0.049923245
000250 76 0e 1b bd 8c 23 6f 3e ef 26 0f 3e 21 a0 87 be
       -0.037855588 0.23353404 0.13979696 -0.26489356
000260 fa eb 14 be 49 af 2c 3e ad 5f 50 3d d4 66 64 3e
       -0.14543143 0.16863741 0.050872494 0.22304851
000270 44 1e 29 3e b3 d8 17 3e ed 2b 62 3e 9a 41 d3 3d
       0.16515452 0.14828758 0.22087069 0.10315247
000280 64 f7 2b 3e 63 dc 8e 3e f8 93 68 3d a9 31 b1 3d
       0.16793591 0.27902517 0.05678174 0.0865205
000290 98 32 2b 3e 06 96 17 be 78 ed 9f bd 91 89 94 3d
       0.16718519 -0.14803323 -0.078089654 0.07252801
0002a0 f7 6a 4f 3e a7 5d e2 bd ca 8b bf 3d cb 0b 1f bd
       0.20255648 -0.11053019 0.093528345 -0.038829606
0002b0 27 f9 4e 3e 04 1d 59 be 48 c8 21 3a 33 46 3a 3e
       0.20212232 -0.21202475 0.0006171507 0.18190841
0002c0 4d 70 4c bc 02 49 e5 3c 73 af 83 be 82 9c b1 bb
       -0.0124779465 0.027988914 -0.25719795 -0.0054202685
0002d0 1f c6 44 3e a5 1b 72 3e 86 3f 62 bd 70 19 57 be
       0.19216202 0.23643358 -0.055236362 -0.21005797
0002e0 83 16 7a be 80 12 de 3d 40 26 8e 3c 57 74 f5 bd
       -0.2442265 0.10843372 0.017352223 -0.11985081
0002f0 c2 25 90 bd d3 01 fa bd f4 5b 5f be 34 42 c2 3d
       -0.07038452 -0.12207379 -0.21812421 0.094852835
000300 97 11 12 3e 38 60 3a be 87 aa 4a 3e 4b 97 a1 3e
       0.14264522 -0.18200767 0.19791614 0.3156074
000310 54 1f b2 3e ba 90 07 3e 1b fa e2 3e 3d 7b b2 bd
       0.34789526 0.13238803 0.4433144 -0.08714912
000320 f7 9d 8a 3c 42 1e 31 3e f6 df c3 3d 5e 0c e9 bc
       0.016921027 0.17296699 0.095642015 -0.02844828
000330 7c 94 41 3e 06 b7 15 be 21 85 bd 3d b8 9d 69 3e
       0.18904299 -0.14620599 0.09253908 0.22814071
000340 cd 26 4e 3e ef 59 42 be 8b c8 44 be ea 50 a3 3d
       0.20131989 -0.1897962 -0.19217126 0.079744175
000350 e9 e1 1f 3e a1 e6 9a bd 32 bc 8b be 5a 6d d4 bd
       0.15613522 -0.0756352 -0.2729202 -0.1037242
000360 c5 47 f4 bd 41 ef 06 bc 33 7f 5c be af 1f e5 bd
       -0.119277515 -0.0082357535 -0.21532898 -0.11187684
000370 fc 9c 61 3d 5a 2e d9 bd 61 7f 3d bd 93 78 cc be
       0.055081353 -0.10604544 -0.046264056 -0.3993574
000380 7f 6d b5 be a5 2a 9a be 12 31 0d bd 14 38 e0 bd
       -0.354351 -0.3011066 -0.034470625 -0.10948196
000390 67 fa 52 3e c4 b7 54 3e b9 ec 23 3e 0c b1 8b 3d
       0.20603333 0.20773226 0.16008271 0.068208784
0003a0 66 84 ed 3d e9 cc 5c 3e 3c c7 2a 3e ab 00 74 be
       0.115975186 0.21562542 0.16677564 -0.2382838
0003b0 a7 83 6d 3e 11 c1 03 be 85 73 76 3d 16 2b 9b bd
       0.23194753 -0.12866618 0.06016876 -0.07576577
0003c0 ed 22 70 3d f1 47 82 bc d0 e6 70 3e f9 e8 62 be
       0.058627058 -0.015903445 0.23525548 -0.22159185
0003d0 b3 93 b9 3d 01 d9 56 be 8b b2 e5 bc f9 cc d7 3d
       0.090613745 -0.20981218 -0.028039237 0.10537142
0003e0 cd 3f 7a be db ef f6 bd 7c 4b b3 bd 0a d3 9f bd
       -0.244384 -0.120574676 -0.08754632 -0.078039244
0003f0 06 94 81 3e 2b 39 07 3e b1 d4 d5 bb 8a 45 85 be
       0.25308245 0.13205402 -0.006525599 -0.26029617

input1.bias f4 [100]
000000 70 04 9d 3d 88 ba 48 3e 55 ba 7d be 4d bd 9f bc
       0.07666862 0.19602406 -0.24778111 -0.019499445
000010 89 27 44 3f 22 bf 77 be 5e 00 8b 3c 78 0d fc bd
       0.76622826 -0.24194005 0.016967949 -0.123072565
000020 18 96 41 be 1b e2 94 3e b1 08 31 be e2 e9 ea 3c
       -0.18904912 0.29078755 -0.17288472 0.028675977
000030 4c 7e 93 be 8a cf 92 3e 8b b3 3c be bd 74 07 be
       -0.28807294 0.28673965 -0.18427865 -0.13228126
000040 2f a1 87 3e d5 af 92 3e b4 3d 5f bc 16 25 1b be
       0.2649016 0.28649774 -0.013625551 -0.15150866
000050 e6 b2 bb bd b3 c3 84 be 38 4d f5 3d 2c 14 e6 bd
       -0.091649815 -0.25930557 0.11977619 -0.11234316
000060 7a 48 2a 3e 03 49 af bc c3 cb da bd 6c e2 ce 3d
       0.1662921 -0.02139712 -0.10683396 0.1010178
000070 a1 61 3f be 6d f8 fb bd 01 f4 83 be 40 2f 81 3e
       -0.18689586 -0.12303243 -0.25772098 0.2523136
000080 60 b5 7a be f5 9a 97 3e 15 aa 6e be 06 2c 5f be
       -0.24483252 0.2961041 -0.23307069 -0.21794137
000090 29 e9 dd 3d 0d fb cd 3e b2 bb d9 3e 36 82 eb 3e
       0.108354874 0.402306 0.42526013 0.4599778
0000a0 ac fb d8 be 84 99 e0 bd 18 f6 63 be c2 ae ba bd
       -0.4237951 -0.10966781 -0.22261846 -0.09115364
0000b0 47 97 93 3d 12 8d 8e be 8d 45 10 3e b6 35 80 be
       0.07206588 -0.27842003 0.14089032 -0.25040978
0000c0 4e 91 80 be 61 51 00 3e da 80 89 be b1 3c 82 be
       -0.2511086 0.12531044 -0.26856118 -0.2543693
0000d0 bd 55 83 3e 60 bf 4a be 05 6a 44 be aa d7 54 be
       0.2565135 -0.19799566 -0.19181068 -0.20785394
0000e0 54 8a 77 bd 21 08 76 3e 11 20 43 bc 08 57 d8 be
       -0.060434654 0.24026538 -0.011909501 -0.422539
0000f0 ea 06 a6 bd 5e f1 91 3e 93 f7 8b be 5f ab cd be
       -0.081067875 0.2850446 -0.27337322 -0.40169808
000100 32 96 67 3e 70 79 77 bd d7 c1 b9 3e dc 6d 0a 3c
       0.22615889 -0.060418546 0.362807 0.008449044
000110 96 83 17 3f 7c 3c a3 bd ce aa 15 3f 0f a3 11 3d
       0.5918516 -0.07970521 0.5846375 0.035555895
000120 46 2e 8a be 6c 03 4c be be 31 37 3e f8 fb 9d 3e
       -0.2698843 -0.1992318 0.17890069 0.308563
000130 a4 f3 1f be d9 c3 dd bd 20 24 63 3e af 37 5b 3c
       -0.15620285 -0.108283706 0.2218175 0.013379975
000140 06 cd e8 bc 99 19 2f 3e 88 26 88 be 16 2f ce 3d
       -0.028418075 0.17099608 -0.26591897 0.10067575
000150 6c c6 2a bc df 70 b6 3e e7 35 1f 3e fc 2e 82 be
       -0.010423284 0.3563299 0.15547906 -0.2542647
000160 30 c2 93 bd d3 4f 9e 3d fe 60 88 be bb 8a f9 3c
       -0.07214773 0.07730069 -0.266365 0.03046166
000170 b7 a4 05 3e 6c b0 a0 3e d4 12 14 3e b1 1c e8 be
       0.13051115 0.313846 0.14460307 -0.4533439
000180 7e 6d 4a 3e fd dd 2c 3e 13 e4 95 3d 3f fa b6 bd
       0.1976833 0.16881557 0.07318892 -0.089344494

input2.weight f4 [2, 100]
000000 8e aa 0d 3e 54 d3 b1 bd d4 e8 d7 3c da f1 48 be
       0.13834593 -0.08682886 0.026356138 -0.19623509
000010 86 92 7c 3f 10 03 b0 3d 53 c9 d4 bb 2a 73 a3 bd
       0.9866108 0.08594334 -0.0064937263 -0.0798095
000020 20 f9 fa bb 7d 4c d3 3b 50 7c 89 3e ee f6 9f be
       -0.0076590925 0.006448327 0.26852655 -0.3124308
000030 43 14 ae be 22 fd 0d bc aa 65 a3 bd 43 ba d5 be
       -0.33999833 -0.008666309 -0.07978375 -0.4174367
000040 0b f4 45 bd fa e5 bb 3e e2 0d 29 3d 9e 5e 08 3e
       -0.04832844 0.36698896 0.041273005 0.13317344
000050 43 b3 42 3e 68 93 9b bc b5 c0 00 be b5 20 e6 bb
       0.19013695 -0.018991187 -0.12573512 -0.007022942
000060 f9 e1 e4 3c 44 5e cc 3c 53 fd d4 3d 1f 7f 2a be
       0.027939783 0.024947293 0.1039988 -0.16650055
000070 37 64 9a be 83 13 9b bd 15 f3 0d bf 70 fb ab 3e
       -0.30154583 -0.07572081 -0.5544904 0.3359027
000080 7f 79 7f 3d 71 0a 1b 3f 82 2b 09 3d 92 15 f9 be
       0.062371727 0.6056281 0.033488758 -0.4864927
000090 c9 ee 2b 3f ce 4d 0e 3f be 41 c2 3e a8 a7 42 3f
       0.6716123 0.5558747 0.37940782 0.76037073
0000a0 48 f2 47 bf 9e b2 de 3d a8 86 56 bc b8 0d 17 3e
       -0.78104067 0.10873912 -0.013093628 0.14751327
0000b0 3c 53 04 be b5 c9 e5 be 52 09 a4 3c 8c f4 ef 3c
       -0.12922376 -0.44880453 0.020023976 0.029291414
0000c0 49 17 7d bc e6 af 7d 3c 62 50 b4 be 46 3a 12 bd
       -0.015447446 0.015483832 -0.35217577 -0.035700105
0000d0 c7 5a 6a 3e 1e 02 bf bd 5c 73 c4 be 57 5f 8f 3c
       0.22886191 -0.09326576 -0.38369262 0.017501516
0000e0 f1 ac 1b 3e 9b ad ea 3d f7 75 a0 3e 97 fd 85 bf
       0.1520269 0.11458894 0.3134 -1.0468014
0000f0 4a 5c 86 3e 44 0b 6e 3e 1b 8d b9 3d ff cd 2f bf
       0.26242286 0.23246485 0.09060117 -0.686737
000100 54 85 24 3f a0 21 15 3e d9 ba 47 3f 06 8e ce bd
       0.6426594 0.14563608 0.7801948 -0.100856826
000110 2b 13 42 3f 45 5a a6 3e 45 31 38 3f 73 fd 2a bc
       0.758105 0.32490745 0.7195018 -0.010436404
000120 08 f0 c6 3d 91 ca ad 3d 4a 0c 39 3f e0 39 0a 3f
       0.09713751 0.08485902 0.72284377 0.5399456
000130 7e 79 64 3d 5c ab d2 3d 93 8a 5f 3b 1f 47 75 bd
       0.055779926 0.102865905 0.0034109696 -0.05988228
000140 a6 43 87 3e a9 95 05 3d 3b 11 87 3c 5f e2 bb 3d
       0.264188 0.03261343 0.016487708 0.09174036
000150 c5 4d 8d be db 4a 10 3f 8f 56 f8 3e 05 7b ab bd
       -0.27598396 0.5636422 0.4850354 -0.083730735
000160 3c ce d4 3c 4a 9e ee bd f7 3f 5a 3d d0 87 8c 3d
       0.025977246 -0.11651285 0.053283658 0.06861842
000170 d4 16 b8 3e 18 6a 47 3e c2 91 ee 3d 6a ad 44 bf
       0.35954916 0.19474065 0.11648895 -0.7682711
000180 cf e7 82 bd 8b 87 a7 3e c8 d5 f9 3e 65 26 c3 3e
       -0.0639187 0.327206 0.48795915 0.3811523
000190 6b 8f bb bd bf 0e 01 3d 5b 8b dc bc 4d 88 7c 3e
       -0.09158214 0.031508204 -0.026921919 0.2466137
0001a0 5f 9d 80 bf 26 40 8a bd 63 b5 81 bd 8b e1 58 3b
       -1.0048026 -0.067505166 -0.06333425 0.0033093418
0001b0 0e 0b 19 3d 34 87 8b bd 70 0e 22 be 52 38 82 3e
       0.03736406 -0.06812897 -0.1582582 0.25433594
0001c0 d1 02 3a 3e da 6e 0c 3d 90 95 ad bd e1 92 a0 3e
       0.18165137 0.034285404 -0.084757924 0.3136206
0001d0 68 32 de 3c 5c f7 d8 be f8 f5 c1 bd e0 f1 fd bd
       0.027123645 -0.4237622 -0.09470743 -0.123996496
0001e0 67 fe 36 be 80 96 b6 bc 28 90 03 3e f6 cc e4 bd
       -0.17870484 -0.02228856 0.1284796 -0.11171906
0001f0 7c 21 1b 3d 3d 85 94 bd 37 9c 83 3d 05 f4 d2 3d
       0.03787373 -0.07251976 0.0642628 0.10300449
000200 36 9c b3 3e df 6a 8c 3d 9d 71 1a 3f 7f fb b9 be
       0.35080117 0.068563215 0.6032961 -0.3632469
000210 e3 16 6e 3c 3d 01 1a bf df 50 a2 3c 47 c4 0e 3f
       0.014531824 -0.6015814 0.019813953 0.55768245
000220 78 a8 31 bf 75 10 31 bf 9d 7c cf be d9 4b 42 bf
       -0.6939769 -0.69165736 -0.4052476 -0.75896984
000230 94 43 59 3f c5 b4 82 be 1a f0 bf 3d c8 e0 f2 bd
       0.8486874 -0.2552854 0.093719676 -0.1185928
000240 87 77 04 3e 11 8c 04 3f 79 cc 08 bd 98 e0 86 3c
       0.12936221 0.51776224 -0.033398125 0.016464517
000250 6c e5 fb 3c b8 3d 0b bd ef e8 84 3e db d4 b7 bd
       0.030749045 -0.033994406 0.25958964 -0.08976146
000260 3f 5a b0 be 6c 28 ac 3d f6 7c b3 3e 03 ce 84 bd
       -0.34443852 0.08406147 0.35056275 -0.06484606
000270 07 66 b7 bb 46 66 60 be f2 13 93 be 78 48 94 3f
       -0.0055968794 -0.21914014 -0.28726155 1.1584616
000280 48 7f 6f be cc b4 78 be ff 90 93 3d 81 7d 4a 3f
       -0.23388398 -0.24287719 0.0720539 0.79097754
000290 ca 46 0d bf 13 af 1f be ca 92 31 bf c3 f4 c2 bc
       -0.5518614 -0.1559413 -0.6936461 -0.023798352
0002a0 64 4d 20 bf 71 67 83 be e3 2a 33 bf c8 6d a2 bd
       -0.6261809 -0.25664857 -0.69987315 -0.07931095
0002b0 2e a3 b6 bd 51 39 45 be 77 d9 30 bf 6c a9 03 bf
       -0.08917843 -0.19260146 -0.69081825 -0.5143039
0002c0 0b c2 6c bd 6a e4 01 be cf e9 f7 bd 19 c0 d1 3c
       -0.05780224 -0.1268479 -0.12105142 0.025604295
0002d0 a2 21 77 be 7c 85 b4 3d ae ad eb ba 0d 37 2a be
       -0.24133924 0.088145226 -0.0017980838 -0.16622563
0002e0 a5 19 76 3e 2c 44 f1 be 03 28 0e bf 20 e5 77 3d
       0.2403322 -0.47122324 -0.55529803 0.060521245
0002f0 49 5a 9d bd 44 a9 83 3e 32 74 04 bd 3f 6e 02 be
       -0.07683236 0.25715077 -0.032337375 -0.12737368
000300 7d aa d0 be 67 b3 a8 be f0 6a d6 bd db 17 4c 3f
       -0.40755072 -0.32949373 -0.104696155 0.797239
000310 e7 0f 87 bd 82 d0 c9 be 70 a1 ab be a8 1d c3 be
       -0.0659483 -0.3941689 -0.33521605 -0.38108563

input2.bias f4 [2]
000000 df c6 fc 3e 93 b5 ba be
       0.49370477 -0.36466655
