openxai/ML_Models/Saved_Models/ANN/compas_lr_0.002_acc_0.85.pt (torch, 5655 bytes, 4 tensors)

input1.weight f4 [100, 7]
0.6222508 0.20431462 0.2525089 0.2593929 0.10059882 -0.35102525 -0.3052814 0.23650001
-0.16452414 -1.0031803 -0.006016843 0.07787447 0.12513047 0.16536766 0.103884056 -0.10104427
-1.1812438 -2.5307417 -0.12069432 0.06356845 -0.06775245 0.82465625 -0.07378043 -0.29195777
-0.29873616 -0.022513611 -0.1698673 0.012398884 0.5435012 -0.070547655 -0.42637977 0.23498814
0.46073923 -0.04008221 -0.10201018 0.6697668 0.23754965 -0.70356977 -1.4476334 -0.238818
0.17766435 0.2749914 0.12765543 -0.08539418 -0.76655996 -3.5538507 -0.07549859 0.13713835
0.004376092 0.024115156 -0.21876265 -0.7362454 -1.1176025 0.30380002 -0.13017781 0.14871205
-0.35054845 -0.15109819 0.27387396 0.27457502 -0.10403451 -0.07004309 -0.3613661 0.6411413
-0.13478272 -0.6052497 0.44423687 -0.14723027 0.1758141 -0.3365668 0.35467437 0.24802212
-0.64534646 0.018229991 -0.20968693 -0.114841424 -0.21068221 0.018732399 -0.2847458 -0.057109594
-0.19405901 -0.3370917 -0.008177191 -0.2314036 0.27957264 -0.08554002 -0.34635353 -1.8413281
-0.06874495 -0.04368592 -0.045899022 0.6254278 0.06586092 -0.7184149 0.19113366 0.004252499
0.028264938 -0.4385754 -0.89506286 -0.014572774 0.6239639 0.0876997 0.36976242 0.015594761
-0.028725697 -0.5495712 0.23465794 0.43560043 0.1814381 0.23920375 0.2087196 0.00012048555
0.7256228 -0.40540996 0.22418115 -0.017794821 0.2754971 -0.30297276 -0.1371566 0.12051055
-0.19855934 -1.0018756 -0.41936475 0.09893938 -0.0879827 -0.24584189 0.3490412 -0.42300242
-0.4270335 -0.9322447 0.21658821 -0.14911607 0.098580204 0.021360673 -0.25179872 -0.7145997
-1.1775919 0.3459271 -0.13452305 0.14352877 -0.016086504 0.19077437 0.6972545 0.24446903
-0.2233434 0.18800706 0.052360006 0.0823385 0.2217182 -1.041151 -1.6654047 -0.06868194
0.21649298 0.18459238 -0.32517076 -0.15621595 -0.22546223 0.013974676 0.0994626 -0.02327486
-0.0549816 0.79425234 0.02140343 -0.7907745 -0.09020295 0.24979441 -0.23698412 -0.2771461
0.39415878 -0.032916326 -0.59412426 -3.4375403 0.013405783 0.05415177 0.07709716 -0.21636721
0.017132115 0.09957331 0.019033583 -0.29915094 -0.0802789 -0.09724504 0.7193729 0.11659048
-0.4503731 -1.7055303 -0.31800202 -0.1274325 -0.37032357 0.32602325 -0.113122374 -0.7770145
-0.112652995 -0.23160173 -0.19619499 0.075309716 -0.012840193 -0.13619775 0.2126536 0.2306238
-0.31995347 0.34090322 -0.23359287 0.6766097 -0.24296641 -0.34140736 0.056907777 -0.2273277
-0.10940166 0.26642925 0.43494844 -0.08617597 -0.5950947 -2.5991552 -0.0574961 0.060451005
0.05571032 0.059180506 -0.60677236 -0.5106689 0.5197672 -0.39090407 -0.06939256 0.06437449
0.33408323 0.038202938 -0.4711226 -0.36022106 -0.08234734 0.029816067 -0.23784281 0.10434382
0.16271183 -0.6826282 -1.6399518 0.16261914 0.356485 -0.029034832 -0.4366651 -0.9163166
0.161802 1.163387 -0.42531818 0.16125913 0.040346418 0.10371778 -0.010214569 -0.49414784
-0.389394 -0.03811453 -0.21239336 -0.048610188 0.19581954 -0.24971525 0.34131083 0.2850178
00000000: d44b 1f3f da37 513e d948 813e 25cf 843e
00000010: c106 ce3d 95b9 b3be d84d 9cbe 0f2d 723e
00000020: 0479 28be 3668 80bf f028 c5bb a67c 9f3d
00000030: 3422 003e 2456 293e 2ac1 d43d 4cf0 cebd
00000040: ff32 97bf acf7 21c0 952e f7bd 2d30 823d
00000050: ccc1 8abd ac1c 533f 321a 97bd 7d7b 95be
00000060: f2f3 98be 776e b8bc b2f1 2dbe b024 4b3c
00000070: e522 0b3f 4a7b 90bd 734e dabe bba0 703e
00000080: 03e6 eb3e 3e2d 24bd b7ea d0bd d675 2b3f
00000090: 3740 733e 261d 34bf 0d4c b9bf b58c 74be
000000a0: a5ed 353e accb 8c3e 1bb8 023e 25e3 aebd
000000b0: 463d 44bf 4a72 63c0 019f 9abd ff6d 0c3e
000000c0: 5265 8f3b 268d c53c 5103 60be 947a 3cbf
000000d0: 990d 8fbf ad8b 9b3e 554d 05be f947 183e
000000e0: 167b b3be 7cb9 1abe 3539 8c3e 1995 8c3e
000000f0: 0c10 d5bd c072 8fbd fa04 b9be d621 243f
00000100: 7b04 0abe a5f1 1abf 0473 e33e 88c3 16be
00000110: 9d08 343e 7c52 acbe e197 b53e 83f9 7d3e
00000120: 6d35 25bf 1057 953c 2cb8 56be fb31 ebbd
00000130: 14bd 57be b074 993c 34ca 91be c0eb 69bd
00000140: 68b7 46be 4997 acbe a0f9 05bc 11f5 6cbe
00000150: 2524 8f3e 9b2f afbd 4055 b1be a4b0 ebbf
00000160: 27ca 8cbd 02f0 32bd 9d00 3cbd 091c 203f
00000170: 17e2 863d 0aea 37bf 8bb8 433e 8c58 8b3b
00000180: df8b e73c f48c e0be d722 65bf a5c2 6ebc
00000190: 19bc 1f3f e69b b33d 8051 bd3e 2b81 7f3c
000001a0: 2752 ebbc b3b0 0cbf 2c4a 703e 0507 df3e
000001b0: e9ca 393e d4f1 743e 97ba 553e 30ad fc38
000001c0: 6ac2 393f e591 cfbe be8f 653e 72c6 91bc
000001d0: f50d 8d3e 3f1f 9bbe c872 0cbe 3cce f63d
000001e0: 2453 4bbe 763d 80bf fab6 d6be bba0 ca3d
000001f0: 4630 b4bd fabd 7bbe 87b5 b23e c693 d8be
00000200: 23a4 dabe 97a7 6ebf 4dc9 5d3e e2b1 18be
00000210: 6be4 c93d 94fc ae3c c3eb 80be 02f0 36bf
00000220: 55bb 96bf 5b1d b13e 69c0 09be 35f9 123e
00000230: d8c7 83bc 5b5a 433e 457f 323f 1756 7a3e
00000240: 22b4 64be ec84 403e 7277 563d 16a1 a83d
00000250: 190a 633e 7044 85bf fb2b d5bf 1ea9 8cbd
00000260: 56b0 5d3e c905 3d3e c87c a6be 13f7 1fbe
00000270: 92df 66be 0af6 643c 0cb3 cb3d ebaa bebc
00000280: 6334 61bd 1f54 4b3f 3f56 af3c 3370 4abf
00000290: 53bc b8bd 1bca 7f3e f7ab 72be 18e6 8dbe
000002a0: 2ecf c93e 45d3 06bd 8718 18bf a900 5cc0
000002b0: eea3 5b3c 3fce 5d3d 1ee5 9d3d 5e8f 5dbe
000002c0: a658 8c3c 17ed cb3d 51ec 9b3c 502a 99be
000002d0: 4469 a4bd 6828 c7bd d328 383f fdc6 ee3d
000002e0: 4e97 e6be d14e dabf 29d1 a2be aa7d 02be
000002f0: 0d9b bdbe 85ec a63e b4ac e7bd 6cea 46bf
00000300: 9db6 e6bd 0129 6dbe 57e7 48be fb3b 9a3d
00000310: ac5f 52bc 6c77 0bbe dec1 593e a528 6c3e
00000320: f1d0 a3be de8a ae3e f832 6fbe 4b36 2d3f
00000330: 30cc 78be f2cc aebe 2118 693d 98c8 68be
00000340: fa0d e0bd 6a69 883e 90b1 de3e 077d b0bd
00000350: 2058 18bf 8f58 26c0 0881 6bbd 799b 773d
00000360: 8130 643d 4267 723d 6f55 1bbf 32bb 02bf
00000370: 770f 053f 9424 c8be b01d 8ebd c6d6 833d
00000380: f50c ab3e af7a 1c3d fb36 f1be e56e b8be
00000390: b9a5 a8bd d340 f43c 118d 73be 36b2 d53d
000003a0: ee9d 263e b9c0 2ebf f1e9 d1bf a285 263e
000003b0: 3485 b63e 75da edbc 9192 dfbe ba93 6abf
000003c0: 6caf 253e dde9 943f 4ec3 d9be 1d21 253e
000003d0: 4942 253d fd69 d43d 025b 27bc f200 fdbe
000003e0: a65e c7be fb1d 1cbd a57d 59be 7a1b 47bd
000003f0: eb84 483e 5bb5 7fbe 4bc0 ae3e daed 913e

input1.bias f4 [100]
0.009841984 0.32021287 0.3068429 0.29030523 -0.19122627 -0.21715291 0.35214454 0.08313899
-0.0503366 0.29713756 0.3395067 -0.34496075 0.21159229 0.08219498 -0.28550726 -0.24562606
-0.29234412 0.055444263 0.01685169 0.08310525 0.0072948127 0.10262918 -0.09170343 0.4558776
0.10823061 -0.032272093 0.43129864 -0.15670404 -0.39186737 0.23306356 0.18846938 0.05315719
0.089911014 -0.3553629 -0.13440609 0.11774228 -0.36085802 -0.20405656 -0.120870024 -0.056833334
-0.08176986 -0.11209564 0.23539656 0.23411211 -0.3686829 0.046963364 -0.260131 0.38796344
0.07082775 -0.05208233 -0.4072799 -0.27684307 0.2597648 -0.2164767 -0.06774297 0.080847256
-0.2107954 -0.1328535 -0.38609225 -0.05958745 -0.3488234 -0.17986453 0.07848691 0.17857952
-0.11747104 0.17819041 0.014892697 -0.3404729 -0.19636671 -0.00069906074 0.3334136 0.08125163
-0.17306183 -0.10460782 -0.11233067 -0.099400565 0.008113346 -0.36490357 0.20446934 0.02757041
0.053562377 -0.35459298 -0.3610812 -0.29152778 0.12909752 0.07622398 0.032149542 0.2827629
0.24355768 0.10199734 -0.12503302 -0.30165654 0.10343947 -0.05163814 -0.07846396 -0.21140108
-0.21519545 0.10458048 0.10088118 -0.13732831
00000000: 4640 213c f1f2 a33e 831a 9d3e e3a2 943e
00000010: d2d0 43be 555d 5ebe 4a4c b43e c644 aa3d
00000020: c02d 4ebd 6a22 983e d2d3 ad3e b29e b0be
00000030: a6ab 583e d755 a83d 022e 92be 6685 7bbe
00000040: 21ae 95be 8619 633d 8e0c 8a3c 1633 aa3d
00000050: 5309 ef3b 3f2f d23d 02cf bbbd ca68 e93e
00000060: 03a8 dd3d be2f 04bd 2dd3 dc3e 0677 20be
00000070: d7a2 c8be 37a8 6e3e 1efe 403e 5bbb 593d
00000080: 4423 b83d 20f2 b5be c0a1 09be dd22 f13d
00000090: 62c2 b8be 34f4 50be b48a f7bd 12ca 68bd
000000a0: f576 a7bd 6692 e5bd cc0b 713e 16bb 6f3e
000000b0: 01c4 bcbe a85c 403d e42f 85be 25a3 c63e
000000c0: 240e 913d 4854 55bd fe86 d0be 60be 8dbe
000000d0: e4ff 843e 11ac 5dbe d4bc 8abd 3f93 a53d
000000e0: c0da 57be bf0a 08be e2ad c5be f811 74bd
000000f0: fb98 b2be 682e 38be bfbd a03d 8ddd 363e
00000100: a894 f0bd 8c77 363e 8000 743c 7752 aebe
00000110: 5b14 49be 2c41 37ba 30b5 aa3e 4167 a63d
00000120: 1f37 31be a03c d6bd 9f0d e6bd 8692 cbbd
00000130: d7ed 043c a4d4 babe 6960 513e 57db e13c
00000140: 3964 5b3d 368d b5be a3df b8be 2143 95be
00000150: 2432 043e 511b 9c3d 3daf 033d 4dc6 903e
00000160: 2f67 793e fbe3 d03d a808 00be ba72 9abe
00000170: 13d8 d33d 8482 53bd b6b1 a0bd 8679 58be
00000180: 325c 5cbe 4a2e d63d cb9a ce3d cb9f 0cbe

input2.weight f4 [2, 100]
-0.112310044 -0.12400137 -0.45453104 -0.119043246 -0.04407415 -0.08679422 -0.5444454 -0.12884963
0.045044422 -0.26556692 0.015197329 -0.041884568 0.0073939404 -0.22563042 0.7125441 0.052873462
-0.92526996 -0.37495247 -0.25080168 -0.24729855 0.06609675 -0.09549923 0.04961563 -0.091815636
-0.67992043 0.04688734 -0.3551098 0.0030255083 0.050810277 -0.07117926 -0.350144 -0.27989686
-0.09645305 -0.18071775 -1.2284431 -0.027304657 -0.07710523 0.11532296 -0.079232454 0.2626603
0.062377397 0.9025266 -0.40540144 1.4557524 -1.0220395 -0.26754364 0.070986025 -0.15250662
0.07171306 0.19514197 -0.61330533 -0.11364487 -0.21205981 -0.1468013 0.73220795 0.21211618
-0.15951249 0.17097184 -0.099931024 -0.16277009 0.023215458 -0.3576652 -0.27584526 0.0128807835
-0.030993154 -0.21950355 -0.3217382 0.016882837 -0.10104909 0.03184317 -0.3550741 -0.1635074
-0.039260447 0.06970488 0.09972886 -0.050978027 0.19910498 -0.0708318 -0.20324777 0.16286719
0.16069695 -0.05455021 0.02620313 0.031532496 -0.23596534 -0.59298354 0.45252264 -0.3412627
0.22463754 -0.07902735 0.34193152 -1.1104083 -0.31380972 -0.51303524 -0.12968345 -0.06801433
-1.0209836 0.34218386 0.06414952 0.053623013 0.14336464 0.096207395 0.35780725 0.17125985
0.14581716 0.137541 0.47300667 0.19374308 0.044416808 0.33215436 0.1342978 -0.020161524
0.12019757 0.27999133 -0.68416315 -0.037943102 0.8760705 0.30130902 0.12780099 0.14781538
-0.048485056 0.1639345 0.0007733981 0.19798452 0.6586083 0.038837425 0.37694985 -0.02229411
-0.058055483 0.120706685 0.17833504 0.12661646 0.08605325 0.13889487 1.1607277 -0.024958855
-0.07201862 -0.123864874 0.0005174652 -0.27337307 0.09146683 -0.90945184 0.3564886 -1.5874717
0.9350451 0.34501064 -0.049213972 0.09170993 -0.088182725 -0.19268674 0.5009507 -0.012872251
0.10112198 0.29025993 -0.61050385 -0.21032663 0.22435096 -0.12326748 -0.08921565 0.020987494
-0.08181681 0.28099 0.15906028 0.13375057 0.14806287 0.1459164 0.31815246 -0.06740049
0.18245766 -0.01615913 0.45278952 0.092656 -0.06335445 -0.1210748 -0.09494675 0.053502098
-0.3016141 0.069990344 0.0987315 -0.12891877 -0.12438453 -0.07237599 0.027696127 -0.07086783
0.10900482 0.5463483 -0.5215863 0.23455468 -0.16269875 0.0769406 -0.4180157 1.2289778
0.25267038 0.4352042 0.22401674 -0.10235814 1.0386299 -0.32430428 0.057443228 0.036141403
00000000: cf02 e6bd 6ef4 fdbd 4bb8 e8be f2cc f3bd
00000010: 1987 34bd 2bc1 b1bd c660 0bbf 28f1 03be
00000020: 8080 383d 63f8 87be 38fe 783c 278f 2bbd
00000030: de48 f23b a90b 67be 4a69 363f d891 583d
00000040: 7ede 6cbf c5f9 bfbe 1469 80be d53b 7dbe
00000050: bc5d 873d 1a95 c3bd c239 4b3d d609 bcbd
00000060: 440f 2ebf f00c 403d f4d0 b5be 9b47 463b
00000070: 701e 503d 6fc6 91bd 1346 b3be a44e 8fbe
00000080: 2d89 c5bd 130e 39be a03d 9dbf 04ae dfbc
00000090: 59e9 9dbd 722e ec3d a044 a2bd 697b 863e
000000a0: 717f 7f3d fc0b 673f c790 cfbe 1856 ba3f
000000b0: 31d2 82bf 7bfb 88be 1f61 913d b22a 1cbe
000000c0: 4cde 923d 4cd3 473e 9401 1dbf a4be e8bd
000000d0: 3526 59be 1453 16be fb71 3b3f fc34 593e
000000e0: 3e57 23be 3e13 2f3e a3a8 ccbd 34ad 26be
000000f0: 582e be3c e51f b7be 973b 8dbe ec09 533c
00000100: 5be5 fdbc 8ac5 60be dfba a4be e04d 8a3c
00000110: d3f2 cebd fc6d 023d 46cc b5be 7c6e 27be
00000120: 90cf 20bd 6fc1 8e3d a53e cc3d 56ce 50bd
00000130: 2de2 4b3e 4310 91bd 2f20 50be a8c6 263e
00000140: be8d 243e 0a70 5fbd f2a7 d63c 3828 013d
00000150: e6a0 71be c5cd 17bf 0cb1 e73e fcb9 aebe
00000160: 6207 663e 17d9 a1bd a611 af3e dc21 8ebf
00000170: abab a0be 4756 03bf bdcb 04be 194b 8bbd
00000180: 97af 82bf b932 af3e d360 833d cea3 5b3d
00000190: 2ece 123e 6208 c53d 8332 b73e be5e 2f3e
000001a0: 1851 153e 8cd7 0c3e ee2d f23e 9664 463e
000001b0: 66ee 353d 2310 aa3e 5d85 093e c829 a5bc
000001c0: 252a f63d 065b 8f3e 5125 2fbf 3a6a 1bbd
000001d0: 2846 603f 2d45 9a3e 43de 023e ea5c 173e
000001e0: 4498 46bd 72de 273e debd 4a3a 74bc 4a3e
000001f0: 8e9a 283f fe13 1f3d 92ff c03e 23a2 b6bc
00000200: 96cb 6dbd 1135 f73d 769d 363e bfa7 013e
00000210: b03c b03d 753a 0e3e ba92 943f 8376 ccbc
00000220: 807e 93bd deac fdbd 80a6 073a 8ef7 8bbe
00000230: f652 bb3d d6d1 68bf ac85 b63e 4632 cbbf
00000240: 1e5f 6f3f 3ca5 b03e 9794 49bd 6ad2 bb3d
00000250: 2599 b4bd ac4f 45be 4e3e 003f 22e6 52bc
00000260: 0a19 cf3d f39c 943e fb49 1cbf dd5f 57be
00000270: 42bc 653e a973 fcbd b2b6 b6bd f7ed ab3c
00000280: 928f a7bd ecdd 8f3e b3e0 223e e9f5 083e
00000290: cb9d 173e 1c6b 153e e1e4 a23e 4509 8abd
000002a0: 2ed6 3a3e 2760 84bc 07d4 e73e 6ec2 bd3d
000002b0: fabf 81bd 11f6 f7bd 7173 c2bd 0425 5b3d
000002c0: 2a6d 9abe 1957 8f3d be33 ca3d 4803 04be
000002d0: 51bd febd dd39 94bd fde2 e23c 2723 91bd
000002e0: eb3d df3d 7bdd 0b3f ae86 05bf 1a2f 703e
000002f0: 809a 26be 0993 9d3d 2706 d6be 254f 9d3f
00000300: 035e 813e 16d3 de3e a564 653e 25a1 d1bd
00000310: d3f1 843f 360b a6be 9749 6b3d 0209 143d

input2.bias f4 [2]
0.012015565 -0.023446696
00000000: efdc 443c 4913 c0bc
