openxai/ML_Models/Saved_Models/ANN/gaussian_lr_0.002_acc_0.91.pt (torch, 10959 bytes, 4 tensors)

input1.weight f4 [100, 20]
0	0xbe389611	-0.18025996
1	0x3e56e708	0.20986569
2	0x3f3af31e	0.7302722
3	0xbf2a3e2c	-0.66501117
4	0xbf3ddaa0	-0.7416172
5	0x3ebbbd30	0.36667776
6	0xbf5a8d4d	-0.8537186
7	0xbe02ee13	-0.1278613
8	0x3f67813a	0.9043156
9	0x3e8ca761	0.2747145
10	0x3d1999a8	0.037500054
11	0xbd37e34e	-0.04489451
12	0x3eb5ee6e	0.3553347
13	0xbe03b97d	-0.12863727
14	0xbe34d129	-0.17657913
15	0x3e2b7488	0.16743672
16	0x3d10158f	0.03517681
17	0xbdb6292e	-0.08894573
18	0x3c1c2d40	0.009532273
19	0xbf0a4269	-0.54007584
20	0x3e0657c8	0.13119423
21	0x3e17f4c6	0.14839467
22	0xbf388c6c	-0.72089267
23	0x3e64cd2d	0.22343893
24	0x3f043c9b	0.51654977
25	0x3f09f60d	0.5389107
26	0xbf31c687	-0.69443554
27	0x3ce670d9	0.028129982
28	0x3e2f3366	0.1710945
29	0xbefbf544	-0.4921056
30	0xbd571583	-0.05251075
31	0xbd020b23	-0.031748902
32	0x3f2570d1	0.6462527
33	0x3acff000	0.0015864372
34	0xbdded377	-0.108801775
35	0xbe4b3380	-0.19843864
36	0x3d800a9e	0.06252025
37	0x3dd9937a	0.10623832
38	0xbf250f25	-0.64476234
39	0x3d47645d	0.0486797
40	0x3e35952f	0.1773269
41	0xbdd7fa72	-0.105458155
42	0xbd7e3ca4	-0.06206955
43	0xbd9f995b	-0.07792922
44	0xbe17eb9e	-0.14835975
45	0xbe0ba1b3	-0.13635902
46	0xbe03baa5	-0.12864168
47	0xbe28bea9	-0.16478981
48	0x3cec400d	0.028839136
49	0xbd055d7a	-0.03255985
50	0x3d97d977	0.07414525
51	0x3b94f040	0.0045452416
52	0x3e0e986a	0.13925329
53	0x3e2d5ff7	0.16931139
54	0xba929720	-0.0011183955
55	0xbe2a8804	-0.16653448
56	0xbbc1d230	-0.005914949
57	0x3dc58efa	0.09646411
58	0xbe47fef6	-0.19530854
59	0x3c59f72e	0.013303561
60	0xbe8beae0	-0.27327633
61	0xbeadc6e5	-0.33940807
62	0xbf1ec643	-0.62021273
63	0xbf591aa0	-0.8480625
64	0xbcfbc859	-0.030735182
65	0xbf38fd4d	-0.72261506
66	0xbe1e2c8f	-0.15446685
67	0x3ed85d30	0.42258596
68	0x3ff1a0b4	1.8877168
69	0x3db85d8e	0.09002219
70	0xbdb5d69e	-0.088788256
71	0xbe14d42c	-0.14534062
72	0x3f6b9d15	0.92036563
73	0x3cbca06b	0.023025712
74	0xbf29313b	-0.66090745
75	0x3d3cfe28	0.04614082
76	0xbebe41b1	-0.37159494
77	0xbe31ef56	-0.17376456
78	0xbed25558	-0.41080737
79	0x3f0b3d64	0.5439055
80	0xbe2e316a	-0.17011037
81	0x3d9469c4	0.07246736
82	0xbe1a863c	-0.15090269
83	0xbd6942c8	-0.056948453
84	0x3e13ff82	0.14452937
85	0xbe1affc6	-0.15136632
86	0x3de39c28	0.11113769
87	0x3d79a898	0.0609518
88	0x3e03b3a0	0.1286149
89	0xb9329400	-0.00017030537
90	0xbd359fc4	-0.044341817
91	0x3d09ef08	0.033675224
92	0xbe2b0190	-0.16699815
93	0xbde90f0b	-0.11379822
94	0x3dea4ad0	0.114400506
95	0xbd27fdf0	-0.041013658
96	0xbe013402	-0.12617496
97	0xbe53315b	-0.20624296
98	0xbe0a0678	-0.1347903
99	0xbe222595	-0.15834649
100	0x3e0aa071	0.13537766
101	0xbdee52aa	-0.11636861
102	0x3d4e70ec	0.05040066
103	0x3d6f2188	0.058381587
104	0xbec299ba	-0.3800791
105	0x3f8fc1e8	1.123105
106	0xbd6c67d7	-0.057716217
107	0xbe833619	-0.2562721
108	0xbf442403	-0.7661745
109	0xbf398bfc	-0.72479224
110	0x3dcc6bd0	0.09981501
111	0xbdeba042	-0.11505176
112	0xbf28c111	-0.65919596
113	0x3c979109	0.018501775
114	0xbe327315	-0.17426713
115	0xbd108ea9	-0.0352923
116	0xbeabec48	-0.33578706
117	0xbe98c344	-0.29836476
118	0x3d5077a3	0.050895344
119	0x3ef252a8	0.47328687
120	0xbf87688a	-1.0578778
121	0xbf1767f2	-0.5914298
122	0x3e4ff669	0.20308842
123	0xbf1ef72c	-0.62095904
124	0xbf3eaeaf	-0.74485296
125	0x3f39cde1	0.7257977
126	0xbe426412	-0.18983486
127	0xbd8d49ed	-0.06898866
128	0x3edc20fa	0.4299391
129	0x3f1ecfd2	0.6203586
130	0xbe0c2b37	-0.1368836
131	0xbe598d09	-0.21245207
132	0x3f14ffed	0.5820301
133	0xbd5d3370	-0.054004133
134	0xbebc80dc	-0.36817062
135	0x3df84c6a	0.1212395
136	0x3d1923b0	0.03738755
137	0x3e291fc9	0.16516031
138	0x3e2e1186	0.16998872
139	0xbf08042e	-0.5313138
140	0x3e965ff6	0.29370087
141	0x3f509f81	0.81493384
142	0xbd07f812	-0.033195563
143	0x3e97809f	0.29590318
144	0xbf6e1e42	-0.9301492
145	0x3e54dfff	0.20788573
146	0xbf394ec0	-0.7238579
147	0xbdb9f595	-0.09080044
148	0x3ea12fc0	0.31481743
149	0xbf7ca081	-0.9868241
150	0x3d6db00c	0.05802922
151	0x3e0c0853	0.1367505
152	0xbef7633a	-0.4831789
153	0x3d7de215	0.061983187
154	0x3e166f13	0.14690809
155	0x3e01d1ac	0.1267764
156	0xbdddd22c	-0.10831103
157	0xbd8a3326	-0.06748037
158	0x3f6270c2	0.88453305
159	0x3e18f55a	0.14937344
160	0xbcde801b	-0.027160695
161	0x3d6e4f0d	0.058180857
162	0x3dfc3d00	0.12316322
163	0x3d5604ac	0.05225055
164	0xbdc49afc	-0.095998734
165	0xbdf6aea6	-0.1204503
166	0x3d49bf62	0.049254782
167	0xbe97d691	-0.2965589
168	0xbe9fcc18	-0.312104
169	0xbdd68f5e	-0.10476564
170	0xbe0330a0	-0.12811518
171	0x3d4a9cc7	0.04946592
172	0x3e565731	0.20931698
173	0xbca59ab3	-0.020215368
174	0x3ce82b03	0.028340822
175	0x3e696ed6	0.22796187
176	0x3d425ffd	0.047454823
177	0x3cee6128	0.029099062
178	0xbe981820	-0.29705906
179	0xbe41544a	-0.1887981
180	0xbf35cabf	-0.7101249
181	0xbed95490	-0.4244733
182	0x3ea6d5c5	0.32584968
183	0x3d0ca4bc	0.03433679
184	0xbf86ffa3	-1.0546764
185	0x3f249432	0.6428863
186	0x3eb260d5	0.34839502
187	0xbe149bc5	-0.14512546
188	0xbf121099	-0.57056576
189	0x3ed62165	0.41822353
190	0xbd8949a9	-0.06703503
191	0xbdb7c48d	-0.08973036
192	0x3e2ade08	0.1668626
193	0x3d8964b4	0.06708661
194	0x3d8a4d37	0.06753009
195	0xbd68e7ca	-0.056861676
196	0xbc84add5	-0.01619617
197	0x3db466b9	0.08808655
198	0x3e571a86	0.21006212
199	0xbf2a9f04	-0.6664889
200	0x3f012a94	0.50455594
201	0x3f211f9a	0.62938845
202	0xbd52967d	-0.051413048
203	0xbe5b37f3	-0.21408062
204	0x3d27c766	0.040961646
205	0x3f4ea1bf	0.80715555
206	0xbf534db7	-0.8254046
207	0xbd91e27f	-0.07123279
208	0x3dc43dc9	0.09582097
209	0x3e5ebba3	0.21751265
210	0xbdccaf9c	-0.09994432
211	0xbe771d61	-0.24132301
212	0x3e3b44bb	0.18287937
213	0x3cb00e1e	0.021491107
214	0xbd449500	-0.04799366
215	0xbe7d83f3	-0.24757366
216	0x3d728487	0.05920842
217	0x3ec02e56	0.37535352
218	0xbee27457	-0.44229385
219	0xbf2999df	-0.66250414
220	0x3eb6eaac	0.35725915
221	0x3ea6f7aa	0.32610828
222	0xbee6c161	-0.4506941
223	0xbf12f7e3	-0.57409495
224	0xbe836ca3	-0.2566882
225	0x3cbe5284	0.023232706
226	0x3f8bfbb1	1.0936185
227	0x3e12a3d3	0.14320306
228	0xbea7669d	-0.32695475
229	0xbdc561eb	-0.09637817
230	0x3e3e68d2	0.18594673
231	0xbd955396	-0.072913334
232	0xbe7fe6e2	-0.24990419
233	0x3c9dd644	0.019267209
234	0x3d26bd97	0.04070815
235	0x3db3c1b7	0.087771825
236	0xbe443fe3	-0.19164996
237	0xbe4a706f	-0.19769453
238	0x3f2951ad	0.6614025
239	0x3e401db3	0.1876133
240	0xbe35cdc9	-0.17754282
241	0xbdda01ac	-0.1064485
242	0xbd1a559e	-0.037679307
243	0x3d7cc6b8	0.06171295
244	0x3dbedab0	0.09319055
245	0x3de5393f	0.111925595
246	0xbd47ecbc	-0.048809752
247	0xbbc67340	-0.0060562193
248	0x3ddd6a2d	0.10811267
249	0xbdc4297e	-0.095782265
250	0xbe290a75	-0.16507895
251	0x3e322f46	0.17400846
252	0xbd6068de	-0.05478751
253	0x3cf3fc2b	0.029783329
254	0xbe5f687c	-0.21817201
255	0xbdc80e80	-0.09768391

input1.bias f4 [100]
0	0x3e38c52f	0.1804397
1	0x3de073b6	0.1095957
2	0xbe47e4a4	-0.19520813
3	0xbe0ab4d3	-0.13545541
4	0x3e05f302	0.13080981
5	0x3ec99ef0	0.39379072
6	0x3e7faf59	0.24969234
7	0xbdfda40d	-0.12384806
8	0xbd560a17	-0.052255716
9	0x3ed6f7f5	0.4198605
10	0xbd0cd579	-0.03438327
11	0xbe9dff4c	-0.3085884
12	0xbe5845df	-0.21120404
13	0xbe46128b	-0.19343011
14	0xbdd3572c	-0.10319361
15	0x3d8e1cb0	0.069390655
16	0xbe79f95c	-0.2441153
17	0x3df75e65	0.12078551
18	0x3d9d6053	0.07684388
19	0xbeba7b6b	-0.36422285
20	0x3d4b8203	0.049684536
21	0x3eefb1fa	0.46815473
22	0x3e36917c	0.17828935
23	0xbd5ae9ac	-0.053445503
24	0x3e992bf4	0.29916346
25	0xbe81fc04	-0.25387585
26	0xbd4349e4	-0.04767789
27	0xbe6f04cd	-0.23341675
28	0x3f2e63fe	0.68121326
29	0xbe6fa5af	-0.23403047
30	0xbe4b34d8	-0.19844377
31	0xbe370419	-0.17872657
32	0x3da94db8	0.08266777
33	0x3e1f41d9	0.15552463
34	0xbe74f04c	-0.23919791
35	0xbeeb2e11	-0.45933583
36	0x3e56a75d	0.20962282
37	0x3d80e090	0.06292832
38	0x3f1bf2f2	0.6091758
39	0x3d90f2dc	0.07077572
40	0xbe1152e7	-0.14191781
41	0xbd8a11be	-0.06741665
42	0xbef3511c	-0.4752282
43	0x3f41f3f4	0.7576287
44	0x3dfff4c3	0.124978565
45	0x3dbbca78	0.09169477
46	0xbda7ceae	-0.08193718
47	0xbbd158d0	-0.006388761
48	0x3d589a3a	0.052881457
49	0x3ec67878	0.38763785
50	0x3cb554dc	0.02213519
51	0xbd921728	-0.07133323
52	0xbe437638	-0.19088066
53	0x3e447cf4	0.19188291
54	0xbf1d1937	-0.613666
55	0x3f1c7974	0.6112282
56	0xbd61ae61	-0.05509794
57	0x3e869dee	0.26292366
58	0xbe6a47ef	-0.22879003
59	0x3ddd2eea	0.10799964
60	0xbdb070fd	-0.08615301
61	0xbe5db27e	-0.2165012
62	0xbe232534	-0.1593216
63	0xbdcbd4ac	-0.09952673
64	0x3e885ab7	0.2663171
65	0xbe4ac1b3	-0.19800453
66	0x3eb776d3	0.35832843
67	0xbd6ac305	-0.05731489
68	0xbaabbd28	-0.0013102638
69	0x3e8016b1	0.25017312
70	0x3deb41a8	0.11487132
71	0x3dffbe70	0.12487495
72	0xbe6e1355	-0.23249562
73	0x3eb2630f	0.348412
74	0xbcf621a8	-0.030045345
75	0x3f14b88f	0.58094114
76	0x3edde5df	0.4333944
77	0xbd0452ae	-0.032305412
78	0x3d28667e	0.04111337
79	0x3ef9c28f	0.4878125
80	0x3e93f318	0.28896403
81	0xbedc3bcc	-0.4301437
82	0x3e083044	0.13299662
83	0xbd47f2b6	-0.04881545
84	0x3e924cc4	0.28574193
85	0x3e6d202c	0.23156804
86	0xbc09b080	-0.008403897
87	0x3ecdce59	0.40196493
88	0xbd94b76d	-0.07261548
89	0x3f763a4e	0.96182716
90	0xbf05aa74	-0.52213216
91	0xbf0285a2	-0.5098516
92	0x3ef91585	0.4864923
93	0xbde0b712	-0.10972418
94	0xbb53b937	-0.0032306442
95	0xbc2b5b9d	-0.010458854
96	0xbdba7ea0	-0.09106183
97	0x3efaa898	0.48956752
98	0x3f08531d	0.5325182
99	0xbf372526	-0.7154106

input2.weight f4 [2, 100]
0	0x3fdcf941	1.7263566
1	0x3f016a18	0.5055251
2	0x3da62732	0.08112945
3	0x40cc130e	6.377326
4	0x3d9e9a0b	0.07744225
5	0xc06c62ef	-3.6935384
6	0x40273d87	2.6131303
7	0xc00517aa	-2.0795693
8	0xbd361df2	-0.04446215
9	0x3ffb1d5e	1.9618337
10	0x3fa9e7b9	1.3273841
11	0xbf4a88fb	-0.79115266
12	0xbd2b5fa4	-0.041839257
13	0xbd807b36	-0.062735006
14	0xc06037e8	-3.5034122
15	0xc0417622	-3.0228353
16	0xbdc322fa	-0.095281556
17	0x3fc92f29	1.5717517
18	0xc081a3f9	-4.051266
19	0xc086b714	-4.2098484
20	0xbb863cf6	-0.0040966226
21	0x408a6859	4.3252378
22	0xbd07974f	-0.033103283
23	0x3cff260c	0.031146072
24	0x40b69c39	5.70657
25	0x3ca5c718	0.020236537
26	0x3c83026b	0.015992364
27	0x40d1cfa0	6.556595
28	0x408fd511	4.494759
29	0x3d83e40c	0.06439981
30	0xc04390d5	-3.0557148
31	0x3e8aaa2a	0.2708295
32	0x3d6270fe	0.05528354
33	0xbda695f8	-0.08134073
34	0xbc0f6852	-0.008752899
35	0xbf46f303	-0.77714556
36	0x3f3d429e	0.73929775
37	0x400dd354	2.2160234
38	0xc0357031	-2.8349726
39	0x3d7c98d2	0.06166918
40	0x3c8d6fcc	0.017265223
41	0x3d0a2898	0.03373012
42	0xc0bbc1b8	-5.8673973
43	0x40228bed	2.5397904
44	0x3bd1e8e0	0.0064059347
45	0xbd39784b	-0.045280736
46	0x3dc0a3a1	0.0940621
47	0xbfa36c4d	-1.2767426
48	0x3caaba43	0.02084077
49	0x4029990e	2.6499667
50	0xc0103ce3	-2.2537162
51	0xbc9ea3d8	-0.019365236
52	0xbda208fa	-0.079118684
53	0xbcbede20	-0.023299277
54	0xbf5933a5	-0.8484443
55	0x3f6fa06b	0.93604153
56	0xbd4420ba	-0.047882773
57	0x3ec195be	0.37809557
58	0xbbb43eed	-0.0055006654
59	0x3d166bc0	0.036723852
60	0xbda2678e	-0.07929908
61	0x3db3e16f	0.087832324
62	0xc0ee5f52	-7.449136
63	0x3c9a734c	0.018853806
64	0x3fbdddc6	1.4833305
65	0x3da78987	0.08180528
66	0xc0746502	-3.818665
67	0xbe8458dc	-0.25849044
68	0x3d05f3c8	0.03270319
69	0xc0057603	-2.0853279
70	0xbceb3bf4	-0.028715111
71	0xbdc682b3	-0.09692898
72	0x3d75e6ce	0.060034566
73	0xc02d859d	-2.71128
74	0xbcfaf838	-0.030635938
75	0x409100e5	4.531359
76	0x40be8e7a	5.954892
77	0x3f38a6a1	0.72129256
78	0xbd1710bd	-0.036881197
79	0x3fce1044	1.6098714
80	0x3f72b6c6	0.9481014
81	0xc03a2172	-2.9082913
82	0x3fe85ab8	1.8152685
83	0x401ca001	2.4472659
84	0x407a1ee6	3.908136
85	0xbd541181	-0.051774506
86	0xbdca708a	-0.098847464
87	0x4007f89d	2.1245492
88	0x400b0299	2.1720335
89	0x4055f16f	3.342861
90	0xc0081df5	-2.1268284
91	0xc07efae2	-3.9840627
92	0xc0266b02	-2.6002812
93	0x3cb6936c	0.022287093
94	0xbf47df9c	-0.78075576
95	0x3fe17674	1.7614274
96	0xbde42b62	-0.11141087
97	0xc0985104	-4.7598896
98	0x3f94612f	1.1592158
99	0x40db77e1	6.8583837
100	0xbfd75b50	-1.6824741
101	0xbf10f92b	-0.566302
102	0x3d48ec4b	0.04905347
103	0xc0cac76a	-6.3368425
104	0x3dc6a339	0.09699101
105	0x4070a3fa	3.7600083
106	0xc022646d	-2.5373795
107	0x3ff7dcb2	1.9364226
108	0xbd2916a0	-0.041281343
109	0xbffa4092	-1.9550955
110	0xbfa8c9e9	-1.3186618
111	0x3f505351	0.8137713
112	0xbd95c86f	-0.0731362
113	0x3d99388b	0.07481488
114	0x405d192d	3.4546616
115	0x403b459a	2.9261231
116	0xbd4ea65a	-0.050451614
117	0xbfcfab42	-1.6224139
118	0x4081f798	4.061474
119	0x40883485	4.256411
120	0xbd855526	-0.065103814
121	0xc08a9c01	-4.3315434
122	0xb9117766	-0.00013872757
123	0xbcc13798	-0.02358608
124	0xc0b7e543	-5.746736
125	0x3cbbad47	0.022909774
126	0x3cff9204	0.031197555
127	0xc0d38353	-6.609781
128	0xc0915ad8	-4.5423393
129	0xbd0e6716	-0.03476628
130	0x404897c1	3.1342623
131	0xbeca3089	-0.39490154
132	0xbd9a10a1	-0.07522703
133	0xbd343d13	-0.044003557
134	0xbc1fabb6	-0.009745529
135	0x3f4b5c13	0.7943737
136	0xbf3707ec	-0.7149646
137	0xc00e9411	-2.2277873
138	0x40368d03	2.8523567
139	0xbd095486	-0.033527873
140	0x3d259b62	0.040431388
141	0x3d9a39ba	0.07530542
142	0x40b97f28	5.796772
143	0xc021baf3	-2.5270355
144	0xbbdc8a60	-0.006730363
145	0x3d580e5d	0.052748073
146	0x3d95ab83	0.07308104
147	0x3faa6805	1.3312994
148	0x3b9dd4b4	0.004816616
149	0xc0346aa6	-2.8190093
150	0x40111a93	2.267247
151	0x3dbfaccd	0.09359131
152	0xbd3fc5dd	-0.046819557
153	0x3d4c9852	0.04994995
154	0x3f54b6b8	0.83091307
155	0xbf853d59	-1.0409347
156	0x3d616408	0.055027038
157	0xbeb0dc54	-0.34543097
158	0x3cd640cb	0.026153943
159	0xbd074368	-0.033023268
160	0xbdca3067	-0.09872513
161	0xbd91187b	-0.070847474
162	0x40ed8e8b	7.4236503
163	0xbca9a480	-0.020708323
164	0xbfbea2bf	-1.4893416
165	0xbd925f2a	-0.07147057
166	0x4076056b	3.8440807
167	0x3e66350f	0.22481178
168	0xbd9816aa	-0.07426198
169	0x4009d30f	2.153507
170	0x3d907a23	0.07054546
171	0xbdaa3582	-0.08310987
172	0xbc3f7818	-0.011686347
173	0x402cefe3	2.7021415
174	0x3b968e60	0.004594609
175	0xc090d871	-4.526421
176	0xc0bf2ed8	-5.974468
177	0xbf4531e1	-0.77029234
178	0xbcfc8c2a	-0.030828554
179	0xbfc337a7	-1.5251359
180	0xbf51b4b9	-0.81916386
181	0x4039e58a	2.904635
182	0xbfdee2e2	-1.7412989
183	0xc02530c6	-2.581102
184	0xc0797d2f	-3.8982656
185	0xbc8c1a67	-0.017102433
186	0x3d1ad592	0.037801333
187	0xc00c564e	-2.1927676
188	0xc00b31a7	-2.1749055
189	0xc056f4b7	-3.3586862
190	0x4005271d	2.0805123
191	0x40807472	4.0142145
192	0x4028aec3	2.6356666
193	0xbb6183a0	-0.003441073
194	0x3f46b98b	0.77626866
195	0xbfd9ae5f	-1.7006339
196	0x3d51e1c8	0.051240712
197	0x40974694	4.7273655
198	0xbf8de5d7	-1.1085767
199	0xc0d7b900	-6.741333

input2.bias f4 [2]
0	0xbdac0c41	-0.08400775
1	0x3e17ef08	0.14837277
