openxai/ML_Models/Saved_Models/ANN/german_lr_0.002_acc_0.71.pt (torch, 26719 bytes, 4 tensors)

input1.weight f4 [100, 60]
00000000: aaaf 9e3a ef7c 69bb 3b3e 433b 2d4c e6ba
00000010: 0bf2 353b 67db 603b 2542 8dba f9ab b83b
00000020: 7cce 193b 39ff 3f3b 48e2 bc3b 5965 b0bb
00000030: 8d89 c2bb 1d54 1139 fcfd e739 3269 7ebb
00000040: d719 313b 3e0c 0a39 f18d 99bb b9b1 5ebb
00000050: 8a36 213b c6d5 54bb b335 3bbb 19d8 47bb
00000060: 886a 1bbb 6d59 8abb 7da9 8e3b 796b b33a
00000070: 7334 19ba ef89 283b 0b1d a6bb 412d 7cba
00000080: f43c cdbb 67da daba 1e3e c53a 48fb 98bb
00000090: d55b 94bb 9f47 8cbb 1471 353b 515d b63b
000000a0: cd06 7bb9 c5af 513a 4145 7bba 81db 783b
000000b0: 4697 c9bb 94bb 2abb efcb efb9 0d74 e33a
000000c0: 8cb5 8fba e766 afbb 1b36 0cbb e821 bebb
000000d0: 2d3f 263b 83c7 5fbb 381b 9936 e8a2 c7bb
000000e0: 616d 3dbb 7092 5a3b 378f 7a3a 5838 8bbb
000000f0: 4b3b b0bb d915 7d3b 3116 c8ba 32f8 0739
00000100: 0a42 a13b 9fb9 b1bb a0c6 37bb a23a 1c3b
00000110: d4c9 ff39 c071 9c3b 6acd 63bb ea64 bd3b
00000120: 9965 8c3a 3bce 8a3b 66ef 8c3b a5e5 97bb
00000130: 191e 9fbb 01ca 74ba d7c4 bebb a857 333b
00000140: a18a d73b 495e 803b 0539 04bb 722b 86bb
00000150: 1389 5f3b d82a 9bb9 24d3 a83b 4b92 d5b9
00000160: dfe1 70ba 1561 2cba d733 c3bb 18d4 b3bb
00000170: e6a2 183b ee33 073b 9a83 c2bb 4050 9a3b
00000180: a9bf 933b a6ec 52bb 23d0 01bb 3a04 ee39
00000190: a16d ddba 770b 9e3b bdc7 2339 3b59 6e3b
000001a0: c07a 15bb 9899 adbb ff2d 0e3a 9648 383b
000001b0: cdc6 a13b d552 c13a 5a6c 17bb e73c abba
000001c0: b77b ba3a d158 a7bb 522d a8ba 37b0 74bb
000001d0: aa76 a9bb fc75 6abb 0b1a a3ba 90d7 eeba
000001e0: da07 b83a 7bd8 77bb a356 37bb 23b2 8f3b
000001f0: 7833 50bb 1d0d 923b 8d50 153b 2b8e c93b
00000200: 7902 3cba 0f71 a63b 066a 1f3b 4a2e e738
00000210: a3d6 353b 2579 5e3b 51bb b93b f2b5 78bb
00000220: cb21 cabb fb92 bdbb 8bcf a5bb 435c 1aba
00000230: 5b7f 6dbb a260 8bbb d803 403b 907c ae3b
00000240: 27f2 82bb 5deb 7ebb 5590 b83b efc9 9bba
00000250: 3341 4dbb aacb bbbb 2813 8bbb c94d 6c3b
00000260: b08b c33b 9953 963b 5aa2 823a b0bc 40bb
00000270: 21c6 2cbb 26fe 9fba 9553 563b de1d 7cba
00000280: 490e 143a c466 133b e25b e3ba 9c59 903a
00000290: 8348 c63b 0ce6 af3b 94f9 963b 1c96 9c3b
000002a0: fe70 cdba e584 cfb7 5049 1c3a 7729 b4bb
000002b0: cfc7 c2bb 893c 3ebb 8018 adbb 52c3 a63b
000002c0: 84a5 beba 7c0e 0abb 183e 24bb 46ab debb
000002d0: 9f08 92bb 93df 37ba ee2f 79bb 9525 2ab9
000002e0: 8b6f c2bb 2773 88ba 2235 70bb 9d2e 0abb
000002f0: c205 4f3b 5910 c83b 575a 04bb 17bc bebb
00000300: f1ae 99bb 0821 1539 a236 9c3b 4f39 073b
00000310: ccff 50ba e8d7 a63b c1a4 a63b 995d aebb
00000320: 4b32 c93b edbe 333b 95c3 af39 066a 9c3b
00000330: 8224 a93a 684a 5fbb 485d c9bb b42a 82bb
00000340: 4c21 463b c8e5 3d3a e38a 413b 8398 8a3b
00000350: b8f9 28bb dd1a c03a b950 283b 0465 a6bb
00000360: f339 90bb 1779 9dbb 3411 6f3b e304 ca3b
00000370: 4bc8 ce38 c5f6 f338 84e2 55bb e9d1 b13a
00000380: bc2f a5ba e1eb 21bb bc94 2abb 8c6a b5bb
00000390: de82 353a 7e9e 40bb af8a 5a3b 6f40 b5bb
000003a0: 1fa6 8cba a300 cc3b 511d 8a3b 99b3 e0b9
000003b0: 7326 993b 6e3b ee3a a145 00bb 6f2d f8ba
000003c0: 8024 8e3a 42ec 9abb 1f8b 8eb9 b062 c0ba
000003d0: d7a8 bd3b 0551 953b 6b61 25bb b573 bdbb
000003e0: b3c0 53ba 3c48 efba 195c 583b c8a8 973b
000003f0: 7383 88bb abee 893b 15f0 9d39 23ce c3bb
0.0012106795 -0.0035627445 0.002979173 -0.001757031 0.0027762677 0.0034310461 -0.0010777159 0.005635735
0.0023469022 0.0029296412 0.0057642795 -0.0053831753 -0.0059368075 0.00013859612 0.00044248987 -0.0038820026
0.0027023458 0.00013165266 -0.00468611 -0.0033980443 0.0024599158 -0.0032476052 -0.0028565943 -0.0030493794
-0.002371462 -0.004222086 0.0043537007 0.0013688646 -0.00058443024 0.002571698 -0.00506938 -0.00096197805
-0.0062633697 -0.0016697169 0.001504842 -0.004668627 -0.004527549 -0.004280999 0.0027685808 0.0055653234
-0.00023939759 0.0007998909 -0.000958521 0.0037972631 -0.0061520664 -0.0026051747 -0.00045737575 0.0017353311
-0.0010964139 -0.005352843 -0.0021394554 -0.005802382 0.0025367246 -0.0034146018 4.562924e-06 -0.006092418
-0.0028904306 0.0033351444 0.0009558084 -0.00424866 -0.005378162 0.0038617759 -0.0015265403 0.00012967063
0.0049212025 -0.005423739 -0.0028041974 0.0023838659 0.00048787764 0.0047743022 -0.0034759887 0.005779852
0.0010711431 0.0042360104 0.0043009995 -0.00463553 -0.004855883 -0.0009337962 -0.005821805 0.002736548
0.006577805 0.0039174897 -0.0020175588 -0.0040945346 0.0034108802 -0.00029595825 0.005152123 -0.00040735523
-0.0009188931 -0.00065757456 -0.0059571075 -0.00548793 0.0023290454 0.0020630318 -0.0059360983 0.0047092736
0.0045089317 -0.003218451 -0.0019807897 0.00045398046 -0.0016893634 0.004823144 0.000156193 0.0036369103
-0.002280876 -0.005297851 0.0005423724 0.0028119436 0.004937029 0.0014749417 -0.0023105354 -0.0013064415
0.0014227544 -0.0051070233 -0.0012830889 -0.0037336478 -0.0051716166 -0.003577589 -0.0012443674 -0.0018222202
0.0014040426 -0.0037818241 -0.0027975223 0.004385249 -0.003176896 0.0044571296 0.0022783608 0.006150981
-0.00071719993 0.0050793956 0.002432467 0.000110235604 0.0027746342 0.003394672 0.005668082 -0.0037950245
-0.006168579 -0.0057853437 -0.0050601414 -0.0005888382 -0.003623924 -0.004253463 0.0029299166 0.0053249076
-0.003996152 -0.0038897612 0.00563244 -0.0011885742 -0.003131938 -0.0057310658 -0.004244227 0.0036057106
0.00596758 0.0045876023 0.0009966597 -0.0029409342 -0.0026363211 -0.001220648 0.0032703627 -0.00096174877
0.00056478806 0.0022491673 -0.0017346109 0.0011013034 0.0060511245 0.005368 0.0046073887 0.0047786366
-0.0015673933 -2.4738207e-05 0.0005961852 -0.005498107 -0.005944229 -0.002902778 -0.0052824616 0.005089202
-0.0014545177 -0.0021065762 -0.0025061425 -0.0067953197 -0.004456594 -0.0007014211 -0.0038022953 -0.00016226464
-0.005933707 -0.0010410295 -0.0036652763 -0.0021084913 0.0031589125 0.0061054644 -0.0020195448 -0.005820762
-0.004690044 0.00014222052 0.004767255 0.0020633524 -0.0007972687 0.005091656 0.005085558 -0.0053212163
0.0061400286 0.0027427033 0.0003352432 0.004773381 0.0012904557 -0.003407145 -0.006145153 -0.0039723758
0.0030232249 0.0007244018 0.0029532246 0.0042296066 -0.002578361 0.0014656443 0.002568288 -0.00507796
-0.0044014393 -0.004805695 0.003647876 0.0061651333 9.860153e-05 0.00011633107 -0.0032636235 0.0013566586
-0.0012602727 -0.0024707245 -0.0026028594 -0.005536383 0.0006924103 -0.0029391344 0.0033346822 -0.0055313627
-0.001073066 0.006225662 0.0042149206 -0.0004285842 0.004673773 0.001817567 -0.0019572752 -0.0018934439
0.0010844618 -0.004727871 -0.00027188004 -0.0014677849 0.0057879495 0.0045567774 -0.0025235068 -0.0057816156
-0.00080777257 -0.001825578 0.003301388 0.0046282746 -0.0041660606 0.0042093596 0.0003012425 -0.005975501

input1.bias f4 [100]
00000000: 1c04 d4ba 5f10 843b bf89 92bb 2fd0 0c3a
00000010: de31 963b c462 9d3c 7741 9aba c121 583b
00000020: 6095 623c 40dc 653c f07d a03b 31f4 80bb
00000030: e6b0 1dbb 2a28 5bbb 2756 a23b 5e76 503c
00000040: 64e8 73ba 7334 263b e756 99bb 4b5a aebb
00000050: b630 bdbb 19ff e33c 40bf ed3c 08ab caba
00000060: 0764 913b 04f9 22bb ed84 8e3b 9e02 ce3c
00000070: 7bea c63c 8920 c1ba 632c 513c 4102 f7ba
00000080: 85d0 91ba 5ded 193c 3ba4 933b d62f 7a3b
00000090: 5c4d 3b3c ba37 b03a 5b13 9d3c 1aa8 913c
000000a0: f94c 51bb 5258 363a 6552 0b3b 785b 7e3b
000000b0: bebc 8f3a 3399 8f39 267a 4e3c 44eb afbb
000000c0: 7bad a33a e77a 09ba ec3c 1e3d 63b5 883c
000000d0: 466f f3b9 dd47 983c e088 48bb 6df6 933c
000000e0: c46a c939 0873 e43a 7377 473d 9c96 053c
000000f0: 91ac c93c 285d 7ebb 41d1 ca3b bee4 233d
00000100: 8bf6 1b3b f440 bd38 c9bd 05bb 2faa 5a3a
00000110: 6ada 393d 0a5a cb3b 6026 333c a326 793c
00000120: 2dee e13b 9509 733a d7ca 6b3b 4f5b 6c3c
00000130: 2f75 9f3b 30bf 83bb fcd6 0f3c 4ad7 0e3c
00000140: d38d 113c 7df2 6f37 9784 703c 3013 4239
00000150: cb8a cf3c 61a4 ce3b 8173 a13b 2f07 bbba
00000160: c230 7a3c ecf0 0d3a 6f23 aebb 9672 223d
00000170: 741f d83b be8c a13c d112 d33a 2893 393b
00000180: 7101 9b3b edea f73b ce97 6e3d a8c7 5f3c
-0.0016175541 0.004030272 -0.004471987 0.0005371598 0.0045835814 0.019212134 -0.0011768778 0.0032979103
0.013829559 0.0140295625 0.0048978254 -0.00393536 -0.0024061739 -0.0033440688 0.004954118 0.012723533
-0.0009304343 0.0025360852 -0.004679549 -0.0053208224 -0.005773629 0.027831601 0.02902186 -0.0015462348
0.004436973 -0.0024867663 0.004349342 0.025147732 0.02428173 -0.0014734428 0.01276693 -0.0018845276
-0.0011124766 0.009394971 0.004505662 0.0038175485 0.011432018 0.0013444342 0.019174268 0.017780352
-0.0031936748 0.000695591 0.0021258828 0.0038811844 0.0010966284 0.00027389228 0.012602365 -0.005368622
0.0012487614 -0.0005244449 0.03863232 0.016688054 -0.00046431477 0.018588955 -0.0030599162 0.01806184
0.00038417254 0.0017429302 0.0486979 0.008153584 0.024618419 -0.003881285 0.006189496 0.040013067
0.0023798074 9.024321e-05 -0.002040731 0.00083413994 0.04537431 0.006205802 0.010934442 0.015206966
0.006894848 0.0009271142 0.0035979056 0.014426067 0.0048662643 -0.004020594 0.008779284 0.008718321
0.008883911 1.4301969e-05 0.014680049 0.0001850843 0.025334736 0.0063062166 0.004927099 -0.0014269109
0.015270414 0.00054146233 -0.0053142826 0.03966006 0.0065955464 0.019720431 0.001610363 0.0028316472
0.0047303964 0.007565847 0.05825024 0.013658442

input2.weight f4 [2, 100]
00000000: 8593 03bb 2671 b1bb 198a 843a c1e5 d3b9
00000010: 0bce 01bb 113a dc3d bbd6 24bc d3e0 803a
00000020: 93f1 123e df4f dabd c8b4 29bd a264 eabb
00000030: 1aef 7a3b d279 843a 197b 57bc c8e2 c23d
00000040: 6b6e 923b 6dfa 0bbd 6ea6 813a 0594 183d
00000050: edee 413b 9152 083e 55d7 4bbe 1619 a4bb
00000060: 9a82 893d eba3 513b c320 26bc cfbb 03be
00000070: 946d 1fbe 0418 9e3b e153 90bd c0dd acbc
00000080: 9e75 fcb9 2d96 5f3d 8799 0c3b df32 25ba
00000090: 7bd6 81bd 3933 00bb 7b47 07be 2a51 2cbe
000000a0: d592 9d3b 7dcf 083d 8e11 023d 7df8 9a3b
000000b0: a591 253b 3ad0 34bb abeb c0bd fe50 f23b
000000c0: ce1b 97bc b4b5 013c 5057 47be c053 1ebe
000000d0: 2e52 a93c 9957 1fbe 7935 d6bc 0a7c c8bd
000000e0: 4320 753c 06d2 153a d23e a5be a72b a8bc
000000f0: 0216 103e 7ad0 e0bb 0ca0 3bbd 2f68 47be
00000100: 521a b4bb 14f2 da3c 4e93 29bd 61ed 553b
00000110: 1a90 81be b05f 74bd abc0 a1bd 2cdb c0bd
00000120: 1948 94bd 0055 15bb 1ccb 0c3c 4e7d 953d
00000130: fa1b ae3c 1200 8dbb 02a8 833d 4f7a 94bd
00000140: 1880 d7bd 54d3 4ebb 803b bcbd 81a8 4b3b
00000150: 9bd6 15be d7e4 33bc fb17 03bd 0f82 843c
00000160: 4d89 07be c347 a2bc 0731 01bb 8a59 83be
00000170: 025b 16bd 0b1c 03be 00f7 86bc f873 333c
00000180: 182c d0bd d3ee 6ebd f91d 9ebe c92a 8dbd
00000190: 480e 86bb 46f1 953b 2add 59b9 4f7e b6bb
000001a0: edc3 c53b b6e1 e4bd 1d19 9f3b 13d2 dbbb
000001b0: 4c4c 10be ee31 d23d 0f06 193d ee82 8e38
000001c0: 8459 21bb 37e3 6a3b 101c 1a3c aebf b5bd
000001d0: 879e 88bb f9e0 d33c d693 363b 32bd 10bd
000001e0: 1339 9a3b 9052 06be b2e5 463e f6ef 253c
000001f0: fee0 87bd 1053 f3bb 51be 843c 9a13 043e
00000200: c72b 1b3e 3e74 0cbc bc2c 8b3d 3826 b13c
00000210: 21b6 8a3b 7e87 62bd e622 963b 1530 f3bb
00000220: ed41 813d 20d9 daba ed50 083e cb4e 2f3e
00000230: 696d d63a d5c7 05bd 4129 03bd d6cf 5dbc
00000240: 84ba e5bb e645 1a3c c4d2 cc3d e30e a6b7
00000250: 7da0 6a3c 7a4c a4bb 777a 493e 7c1c 1c3e
00000260: e48e 5dbc 28c4 213e bf4f e53c 2854 d23d
00000270: 6d03 1dbc 2008 243b 2c9b a53e 265a ad3c
00000280: 737b 10be 6d46 9d39 e715 483d c1ef 4a3e
00000290: a2c1 dd3b 9733 c1bc c3cf 0f3d 361b 88bb
000002a0: b387 813e dbac 743d 2e10 ad3d 5c09 ba3d
000002b0: 860e 913d 4acb 0e3c dc32 70bb 5747 93bd
000002c0: 2901 8ebc 0117 8abb 3f9c 80bd adb8 973d
000002d0: 80ac de3d e6bf 393b d0be b73d 2f63 1f3b
000002e0: 1b1c 0f3e 534c 8e3b 0291 1c3d 20b1 8abc
000002f0: 30fb 053e 5310 793c 5bb1 a739 6fd0 823e
00000300: 1860 f63c a2bd f63d 370d 4a3c c490 96bb
00000310: 74ed c33d 976f 6f3d e29b 9f3e 20b0 8a3d
-0.0020076942 -0.0054150997 0.0010111957 -0.00040416236 -0.001980665 0.10753263 -0.010060961 0.0009832628
0.14349966 -0.106597655 -0.041432172 -0.0071531096 0.0038289488 0.0010107106 -0.013151907 0.09515911
0.0044687293 -0.03417437 0.0009891519 0.037250537 0.0029591874 0.13312747 -0.19906361 -0.0050078733
0.067143634 0.0031988572 -0.010139647 -0.12864612 -0.15569144 0.00482464 -0.07047249 -0.021101832
-0.00048152817 0.05458658 0.0021453814 -0.0006301831 -0.06339737 -0.001956178 -0.13210861 -0.16827837
0.0048087635 0.033401 0.031755023 0.004729329 0.0025263813 -0.0027589933 -0.0941995 0.007394909
-0.018445875 0.007916857 -0.19466901 -0.15461636 0.02066907 -0.1556076 -0.026148545 -0.097892836
0.014961305 0.0005715195 -0.3227449 -0.020528628 0.14070895 -0.00686079 -0.04580693 -0.19473337
-0.0054963017 0.02672676 -0.041400246 0.003264271 -0.25305253 -0.059661567 -0.078980766 -0.09416804
-0.07240314 -0.002278626 0.008593347 0.072992906 0.021253575 -0.004302987 0.06428529 -0.07249891
-0.10522479 -0.0031559067 -0.09191036 0.0031075778 -0.14632647 -0.010979853 -0.03200529 0.016175298
-0.1323597 -0.01980961 -0.001971306 -0.2565425 -0.036707886 -0.12803666 -0.0164752 0.010952942
-0.1016466 -0.05833323 -0.30882242 -0.06892926 -0.004091058 0.004575881 -0.00020777123 -0.0055692564
0.006035319 -0.111758634 0.0048552887 -0.0067083924 -0.14091605 0.102634296 0.037359294 6.795475e-05
-0.0024620006 0.0035840997 0.009406105 -0.088744506 -0.0041692886 0.025864111 0.0027859113 -0.03533668
0.004706511 -0.13117433 0.1942356 0.010128012 -0.06634711 -0.0074256733 0.016204031 0.12898102
0.15153418 -0.008572636 0.06795642 0.02162467 0.0042331372 -0.055304997 0.004581797 -0.0074215033
0.063114025 -0.0016696788 0.1331212 0.17119901 0.0016359511 -0.032661278 -0.032021765 -0.0135383215
-0.00701076 0.009416079 0.10001138 -1.9795674e-05 0.01432049 -0.0050139995 0.19675623 0.15245241
-0.013522837 0.15797484 0.027992127 0.10269958 -0.009583336 0.0025029257 0.3234495 0.02116115
-0.14109592 0.00029997845 0.048849013 0.19818021 0.0067674676 -0.02358417 0.035110246 -0.0041536344
0.25298843 0.05973516 0.08450352 0.090838164 0.07082848 0.00871546 -0.0036651408 -0.07191341
-0.017334538 -0.004214168 -0.062798016 0.07408271 0.108727455 0.002834314 0.089719415 0.0024320593
0.13975565 0.0043425946 0.038224228 -0.016930163 0.13084102 0.015201646 0.00031984862 0.25549647
0.030075118 0.12047888 0.012332252 -0.004594894 0.09566775 0.05845603 0.31173617 0.067718744

input2.bias f4 [2]
00000000: 7fb8 0f3d 39f0 14bd
0.03508806 -0.036361907
