openxai/ML_Models/Saved_Models/ANN/heloc_lr_0.002_acc_0.74.pt (torch, 11935 bytes, 4 tensors)

input1.weight f4 [100, 23]
00000000: 9dd2 7f3e 1c43 2abe f72b 31be f7d4 02be
00000010: f5e9 46be 15c5 c73e d46f 6f3d 518d 9dbe
00000020: 720c e2be ec33 a73c 10c1 8b3e a03a 913e
00000030: ebb6 e2be 3d74 a1bd cc24 4d3e ea41 6f3e
00000040: d5ad 85be 9ab0 f6be 2bf8 bc3e ff71 12bf
00000050: 67bb d8bd d439 493e 2fbc 4ebd f07f 0ebe
00000060: cfe0 1ebe 22c7 973d 8875 243c 149b d23c
00000070: 5cfb 013d 409a ef3b 0ce0 c13c 9e84 1d3d
00000080: a0c9 d93d 463d 05bd dc01 e73d 8906 22be
00000090: 16ef 1ebe 3c4b 83bd 489d 053e cc74 303e
000000a0: e3e7 fa3d 229b 3abe 258c 91bd 655e 3ebe
000000b0: 395e 22bd 50f6 26be 5aa2 c23e 3652 0b3e
000000c0: 3f85 82bf d248 dbbd 98d1 5dbf 5a36 c03e
000000d0: 4ff6 b4be 5a25 e93d f2f8 623d d3ed 253d
000000e0: 5cf7 8cbe baf3 7bbe fa22 01bf f36a 40bf
000000f0: 562e 83bd 751d 8abf 6088 9bbf 0837 ecbc
00000100: e150 0d3e 2fad cebe 577d 3f3f f705 8d3f
00000110: a1f6 e43d d8c9 30be c036 01bc ca5b 813d
00000120: b7ec 303e b1e3 503e e7f4 373e 9d37 33be
00000130: 0987 cfbd 2889 cc3c 373c cfbd 8864 b3bc
00000140: 73ca cfbd b586 28be 6dfd 473e 7825 f3bc
00000150: 22d7 a0bd ccdc 553d 601f 1bbc 6fe4 0d3e
00000160: d2de 07be 89ba fabd 1fcc 43be 709a 35be
00000170: 1ae3 833e 265a 043e 4124 e6be fd61 d73e
00000180: b5a9 cb3e cac1 bcbe 7e77 733e 00f0 b83e
00000190: 966a e6bb fa48 513e 3040 af3d 1166 38bd
000001a0: f91e 4fbe 5aa7 9f3c d971 f4bd 9c74 4abf
000001b0: e40d 1d3e 365a 1bbf 2b0c 15be f602 b7be
000001c0: 3bdb 093e cbf4 abbe 161f 02be 5392 09be
000001d0: 50cb d43c ed7a fe3c e3af 8bbd 88e0 93bd
000001e0: 66a5 0fbd 7063 66bd 0b19 f6bd 153d 4cbe
000001f0: 6e3f aebb 0729 35bc 8657 31be cae2 283d
00000200: 241d bbbd b468 12be b068 54be bf52 63be
00000210: 61ea 183d 21db 49be d52e d63d bf00 65be
00000220: 62fa d13c f08e cb3c 28a2 4ebe 9a5c 26be
00000230: cd21 15be 5c9c 2f3e cd0b 51be b149 edbd
00000240: 6681 2f3d b096 2fbd 5e0a 14bd 972a 9cbd
00000250: 00bc 1b3e 6acd 0ebe b3bb 00be 4290 eebb
00000260: f1b1 bcbd deb2 4abe f932 173e 116e f9bd
00000270: d11e 233e 1cbf c93c 3fdb 293e ce1a d63c
00000280: 1871 283d 8ff7 113e 6015 a03e 32f5 edbd
00000290: 024f 113f 87b8 203f 2ec2 8dbe cffc b63c
000002a0: 57ec cc3e 4d9f 993d 7467 2f3e 55b3 213d
000002b0: 229b bd3e 3c37 8f3d d80e 37be cc52 aebd
000002c0: f5b4 dbbe 0c6b a13e 8a5d 84be 4512 65be
000002d0: ce54 ddbe 1d94 523e d65d 13bf 8c81 a6bd
000002e0: 8489 ab3d dda6 c13d 4c8d 9f3e 5038 f7bb
000002f0: 907a 21bf 9c9c 91be 5623 8a3e 5608 4cbc
00000300: 8d78 4c3e a279 293e 43a2 fcbe f677 8fbd
00000310: 1cd3 42be 2af2 74be f345 053e 3b80 f1be
00000320: 0f48 14bf 0aeb c33d d3cc bcbd 9511 bfbe
00000330: a9ec 34bf 5e84 b3bf ac13 d43e 9198 7abc
00000340: 90fe 0d3e 32c9 263c a209 da3c 8f62 63be
00000350: 82eb 903d ee79 d63d 4e64 edbd 6c19 6b3d
00000360: 9c85 b5bd 2d94 cdbc eba5 253d 593c ccbd
00000370: c542 0abe a1d5 a5bb d279 eebc 29d8 dc3c
00000380: c10a 573c 0e78 4fbe 9255 b03d c34f 083e
00000390: daf0 4abd 2bfd b33c df84 8abd 41c8 a6be
000003a0: a890 86bc e1c4 63be aa1f 6dbd ef98 c93d
000003b0: 6637 73bd eae6 4fbe f10a 933e 8edf 6ebe
000003c0: deef a9bd 5c88 6fbc 0589 a73e b40f 673e
000003d0: 5181 093f 8b31 2b3f edae 023f fdc1 463e
000003e0: e962 c0be 8879 8a3e f658 1f3e 490e ebbe
000003f0: f6bf 5a3e ec5c c1bd 457d 98bc 71c8 44be
0.24982686 -0.16627163 -0.17301928 -0.12776552 -0.19425185 0.3901755 0.058456257 -0.30771878
-0.4415012 0.0204105 0.27295732 0.2836504 -0.4428018 -0.07883499 0.20033568 0.23364988
-0.26109186 -0.4818161 0.36908087 -0.57205194 -0.10582619 0.19650966 -0.050472435 -0.13915992
-0.15515445 0.074110284 0.010037787 0.025708713 0.031733856 0.007312089 0.023666404 0.03845655
0.1063416 -0.032529138 0.112796515 -0.15822805 -0.15520892 -0.06410834 0.1304828 0.17232054
0.1225126 -0.18223241 -0.071068086 -0.18590696 -0.03964064 -0.16304898 0.3801449 0.1360558
-1.0196913 -0.10707249 -0.8664794 0.37541467 -0.3534417 0.11384077 0.055413194 0.04051001
-0.2753247 -0.24604693 -0.50443995 -0.7516319 -0.06405322 -1.079024 -1.2150993 -0.028834835
0.13800384 -0.40366504 0.7480063 1.1017445 0.11179853 -0.17264497 -0.007886589 0.063163355
0.172778 0.20399357 0.17964517 -0.17501684 -0.10133178 0.024967745 -0.10118907 -0.021898523
-0.10146036 -0.16457637 0.19530268 -0.029680952 -0.07853533 0.05221252 -0.00946793 0.13856672
-0.13268593 -0.1224261 -0.19120835 -0.17734694 0.25759202 0.12925014 -0.44949535 0.42066947
0.39777914 -0.368666 0.23776051 0.36120605 -0.007031749 0.20437995 0.08557165 -0.045019213
-0.20226659 0.01948898 -0.11935777 -0.7908418 0.1533733 -0.60684526 -0.14555423 -0.35744447
0.13462536 -0.335852 -0.12707171 -0.13434725 0.025975853 0.031064475 -0.06820657 -0.0722056
-0.035069846 -0.056247175 -0.12016495 -0.19945176 -0.00531762 -0.011057145 -0.17318544 0.041231908
-0.091364175 -0.14297754 -0.2074306 -0.22199534 0.037332896 -0.19712497 0.10458151 -0.22363566
0.025632087 0.024848431 -0.20179045 -0.16246262 -0.14563675 0.1714949 -0.20414658 -0.11586321
0.042848013 -0.042868316 -0.0361427 -0.07625311 0.15208435 -0.13945547 -0.12571602 -0.0072803805
-0.09213627 -0.19794795 0.14765538 -0.121791966 0.15929724 0.02462726 0.16587542 0.026135828
0.04112348 0.14254592 0.31266308 -0.11619033 0.5676118 0.62781566 -0.2768721 0.022337345
0.40024063 0.07501087 0.17129308 0.039477665 0.3703242 0.06992957 -0.17876756 -0.08511886
-0.42911497 0.31526983 -0.25852615 -0.2237025 -0.43228763 0.20564313 -0.5756506 -0.08130178
0.083758384 0.09455655 0.31162488 -0.007544555 -0.6307764 -0.28439796 0.26980084 -0.012453159
0.19967861 0.16550305 -0.49342546 -0.070053026 -0.19025844 -0.23920503 0.13014965 -0.47168145
-0.5792245 0.095663145 -0.092187546 -0.37318102 -0.70673615 -1.402477 0.41421258 -0.015295164
0.13866639 0.010179805 0.026615921 -0.22205566 0.070761696 0.10472475 -0.11591397 0.05739729
-0.088633746 -0.02509507 0.040441435 -0.09972448 -0.13502033 -0.005060867 -0.029110823 0.026958542
0.0131251225 -0.20260641 0.08610071 0.13311677 -0.0495461 0.021971306 -0.067636244 -0.32574657
-0.0164264 -0.22243072 -0.057891525 0.09843623 -0.059379004 -0.2030293 0.28719285 -0.23327467
-0.08297704 -0.014619913 0.32721725 0.22564584 0.53712946 0.6687247 0.51048166 0.19409938
-0.37575462 0.27045846 0.1556128 -0.45909336 0.2136229 -0.094415516 -0.01861442 -0.19217087

input1.bias f4 [100]
00000000: 9885 083e 099f 9abd 1cad 85bd 23eb 45be
00000010: a608 b2be 52ac 883d f317 c4bd f6d7 27be
00000020: c752 0cbe a8ea 30ba a453 24bd a651 2a3e
00000030: 98b0 803d 9d07 513b d8f1 2d3e dc39 41be
00000040: 7a6e 7d3e 1c49 d13d 8181 6dbe 992c 8d3e
00000050: 9ef3 95bd 900a 843d e3ab 42be a695 7c3e
00000060: 13a7 2dbe ffd1 f1bd da0e 18bd 6764 55be
00000070: 23ff 2c3e 08c0 37be 24e8 833e 9565 00be
00000080: caa6 9fbc fbfe 5abe a1b4 5dbe ece2 c2bd
00000090: 149e a8bd 5a14 8ebe a8d6 d9bc d94a 9d3e
000000a0: f279 c43c 7c11 c5bd 897d c8bc c03d fb3c
000000b0: 84d6 1a3e da70 b8be 3f70 00be ec0f 25be
000000c0: a429 103e ce09 8e3d 33e1 4e3d 0a6b 87bc
000000d0: 60e7 403e 89a8 63bc 93d1 f2bd b26b 503c
000000e0: 2cc6 bf3d 7080 0bbe e6ac 47be e91a fabc
000000f0: e08d 64bd ea2f b93e dddb f2bd 4197 9bbd
00000100: 3963 49be 8b76 c03d 9138 90bd e275 a63c
00000110: 1444 c0bc c8ef 4abe b953 36be 1c55 4bbe
00000120: 37e2 56be ebb0 c9bc 7476 053e 7edc 443d
00000130: 9f60 c73c 0c99 98be 28b1 e3bd 50ef b33d
00000140: 368e d23d c9d9 ed3d f899 8bbd 5eaf 19be
00000150: aa4d 4bbe 105b d7bc 37d5 d1bb f54a b3be
00000160: 2bbb 093d 298b 57be fdd4 623e f84f a63c
00000170: e10f 19be 59f5 9fbe 95df 83be 7dbc ccbd
00000180: e8c0 72bd e53b 0fbe 3aff 08be c1e6 4abe
0.13332212 -0.07549865 -0.065271586 -0.19327979 -0.34772223 0.066734925 -0.095748805 -0.16390976
-0.13703452 -0.00067488337 -0.04011883 0.16632709 0.062836826 0.0031895407 0.16986787 -0.18869728
0.24749175 0.10219023 -0.23193933 0.27573088 -0.07321857 0.06447327 -0.19010882 0.24666461
-0.16958265 -0.11807632 -0.03712354 -0.20839082 0.16894202 -0.17944348 0.25763047 -0.1253875
-0.01948871 -0.2138633 -0.21650936 -0.09515938 -0.08233276 -0.27749902 -0.026591614 0.30721167
0.02398393 -0.096224755 -0.024473922 0.030669093 0.15120894 -0.360236 -0.12542818 -0.16119355
0.14078385 0.06935464 0.050507735 -0.016530532 0.18838263 -0.013895162 -0.11856379 0.012720989
0.0936397 -0.13623214 -0.1949955 -0.03053041 -0.055799365 0.36169368 -0.11858342 -0.07597209
-0.19666757 0.0939761 -0.07042039 0.020319883 -0.023469962 -0.19818032 -0.17805375 -0.19856685
-0.20984732 -0.024620494 0.13033468 0.04806184 0.024338065 -0.29804265 -0.11117774 0.087858796
0.10281031 0.11613805 -0.068164766 -0.15008304 -0.19853845 -0.02628854 -0.006403591 -0.35018125
0.033625763 -0.21049179 0.22151561 0.020301804 -0.14947464 -0.31241873 -0.25756517 -0.09996889
-0.059266 -0.13987692 -0.13378611 -0.19814588

input2.weight f4 [2, 100]
00000000: aea3 ae3e 7917 863c 888c 0340 4774 adbd
00000010: a232 86bd bd58 8bbd 0c83 afbd 874f 8cbe
00000020: c6f6 35bf 6765 933d a162 4f3e 5e7f d33d
00000030: fa20 333e 5a4a 173f 7c50 d83d a177 9cbe
00000040: d85a dabc 9c16 a9bd 880b 32bd 0551 373f
00000050: dcd7 033d 1b1a 163f 2ffd aa3d f966 b33e
00000060: f508 ab3e 694b a83f 8d3e cc3d 0901 983d
00000070: d712 43bf 5ce4 84bd 9a93 f83e 611a 973e
00000080: 3e96 8bbf b6ce 07bd 2821 75bd af8e 4b3e
00000090: 6657 b0bd 1f0e 6cbd 890f 053e ff94 d43e
000000a0: 5f12 d3bc 318b 493e 1ca4 7ebd 4642 5dbf
000000b0: eacd 9c3e 5d7a 1fbe 4422 52bd 746e ddbe
000000c0: cec2 473f 78fc 633f 82b9 0c3f c5db 693d
000000d0: 51ef 203e 2ee0 90bd 867e 8bbe b927 873f
000000e0: eb89 863c cd7d 813d 385c 443f 12f0 75bf
000000f0: e5ec a1bc b1fd 003f 262f f0bc 54e4 d7be
00000100: c24e 473e d346 cd3e c61d 37bd a752 44be
00000110: 4ff1 9f3d f143 bc3d fee0 24bb ff81 7b3f
00000120: ac98 49bd e6fa d4bf bdaa afbf fdd6 dd3e
00000130: 9dcd 863e 3e21 c7bd ae21 64bc fe04 b43d
00000140: 7af3 813f 1d2d 94bf 3160 d0bc 57ad 5abd
00000150: ff81 ddbb 0f58 17bd ca65 aabe 300b 91be
00000160: ff1b 993e 8dfc 463f 3a9f 523f 90d5 02bf
00000170: 7974 cabe 7dd4 a4be bcfa 6a3f 0b76 3f3f
00000180: 4658 d03e dafe 1b3d dd15 353f 97f4 82bf
00000190: 8f5a 8bbe 3836 3d3d ecf4 02c0 60f3 1fbb
000001a0: 9078 4b3e bc85 5fbd 69cb 63bd 9f35 743e
000001b0: 8f50 3d3f 678f 903d 5f21 b3be 04e6 6ebe
000001c0: 0c1d 35be 824a e6be 747f 2ebe 3dfa a03e
000001d0: d3ad 29bd 1724 d53d 0390 823c 8718 3cbf
000001e0: a400 25bc 9915 30bf 9d47 08be 7ee2 a5be
000001f0: e48a b2be 2219 96bf 1739 2ebd 8f54 953d
00000200: b2a5 4d3f e8a1 17bc a514 d7be 69b5 b5be
00000210: aefa 853f b423 e43b 24d6 c6bd 6993 afbd
00000220: 6b22 77bd 8ded 523d fd00 903c 35f3 04bf
00000230: 0e69 3abd 15e4 53be e057 9a3b 528d 493f
00000240: a722 4bbe 8d6a d23c 7ac5 6fbd 3a43 c53e
00000250: b09b 5dbf d622 61bf 70eb 22bf 3e86 5f3d
00000260: 7d21 0dbe bd31 073d e727 843e d344 86bf
00000270: c9dc fc3c ed27 993d 0c7e 4cbf 9ee0 813f
00000280: a0b4 30ba 5d55 13bf c472 a53c 9ef9 d73e
00000290: b1df c7bd 48ce d4be c9e9 08bd ad3b e23d
000002a0: e1e5 d63d d390 b03d 2106 f53b 684a 81bf
000002b0: b13e 4cbd 297c d73f dfb3 ae3f c19a d8be
000002c0: 8002 98be becf ae3d 7c65 023c 4575 16be
000002d0: 74d5 98bf 675e 9c3f 2747 cc3c 0036 61b9
000002e0: a8a0 acbc 7e60 1abd 8971 723e 6108 943e
000002f0: d9ab 87be 7a69 2cbf f6e8 50bf c743 ee3e
00000300: b34e 8e3e 5622 193e 9f42 6bbf a786 1cbf
00000310: ce92 08bf e4de a03c cdd9 1bbf 6f29 983f
0.34109253 0.016368615 2.0554523 -0.08469444 -0.06552626 -0.06804035 -0.08569917 -0.27404425
-0.7107967 0.07197075 0.20252468 0.10327028 0.17493048 0.59097826 0.10562226 -0.3056002
-0.026654646 -0.082562655 -0.04346803 0.71608 0.03218828 0.58633584 0.08349072 0.350395
0.3340527 1.3148013 0.09972868 0.074220724 -0.7620062 -0.064888686 0.4855011 0.29512313
-1.0905225 -0.03315612 -0.059846073 0.19878648 -0.0861042 -0.057630654 0.12994207 0.41519925
-0.025765596 0.19682004 -0.062168226 -0.8642925 0.3062585 -0.15574022 -0.05130221 -0.43248332
0.78031623 0.8905711 0.5497056 0.057094354 0.15716292 -0.07074009 -0.27244967 1.0558997
0.016423186 0.06322823 0.76703215 -0.96069443 -0.01976628 0.503871 -0.029319357 -0.42166388
0.19463637 0.40093097 -0.04470613 -0.19172154 0.07809698 0.09192646 -0.002515852 0.98245233
-0.049217865 -1.6639068 -1.372398 0.43328086 0.26328745 -0.09723137 -0.0139240455 0.08790015
1.0152428 -1.1576267 -0.025436493 -0.053387966 -0.0067598815 -0.036949214 -0.33280784 -0.28328848
0.29904172 0.7772911 0.8227421 -0.5110712 -0.39541987 -0.32193366 0.9178884 0.74789494
0.40692347 0.038084842 0.70736486 -1.0230893 -0.27217528 0.046194285 -2.0461988 -0.0024406537
0.1987021 -0.0545709 -0.05561391 0.2384858 0.7395105 0.07058602 -0.34986398 -0.23329931
-0.17686862 -0.4497872 -0.17040807 0.31440917 -0.041425537 0.10407274 0.01593781 -0.73474926
-0.0100709535 -0.68782955 -0.13308568 -0.32399362 -0.3487159 -1.172642 -0.042534914 0.07291519
0.80330956 -0.00925491 -0.42007938 -0.35489967 1.0467126 0.006962264 -0.09708813 -0.08573038
-0.060335558 0.051496077 0.017578596 -0.51933604 -0.045510344 -0.20692475 0.0047101825 0.7873126
-0.19837438 0.025685573 -0.058537938 0.38527852 -0.86565685 -0.8794378 -0.636405 0.054571383
-0.13782306 0.03300642 0.25811693 -1.0489753 0.030866997 0.07478318 -0.7987983 1.0146673
-0.00067407824 -0.5755213 0.020196326 0.4218263 -0.097594626 -0.4156363 -0.03342608 0.110465385
0.10493065 0.08621373 0.0074775373 -1.0100832 -0.049864475 1.6834766 1.3648642 -0.42305568
-0.29689407 0.085357174 0.007958766 -0.14693172 -1.1940141 1.2216309 0.024936272 -0.00021477789
-0.0210727 -0.03768968 0.23676123 0.28912643 -0.26498297 -0.67348444 -0.8160547 0.46536085
0.27794418 0.14954504 -0.9189853 -0.61142963 -0.53349006 0.019637533 -0.6087921 1.1887645

input2.bias f4 [2]
00000000: 94c7 513d 0a68 e23d
0.051215723 0.11055
